deeplabv3_mnv2_dm05_pascal_quant.tflite (tflite, 760856 bytes, 55 tensors)

MobilenetV2/Conv/Conv2D_Fold;MobilenetV2/Conv/weights_quant/FakeQuantWithMinMaxVars u1 [16, 3, 3, 3] scale=0.07726895 zero_point=117
0.23180684 -0.7726895 0.54088265 0.3090758 -0.7726895 0.4636137 0.1545379 -0.69542056
0.54088265 0.3090758 -1.1590343 0.38634476 0.54088265 -0.9272274 0.38634476 0.38634476
-0.69542056 0.23180684 0.1545379 -0.9272274 0.69542056 0.38634476 -0.7726895 0.54088265
0.38634476 -0.69542056 0.3090758 1.0044963 -5.022482 -0.07726895 2.1635306 -2.3180685
1.8544548 2.0089927 -2.0862617 2.0862617 2.6271443 -1.699917 1.4681101 1.3908411
-2.2407997 4.0179853 -1.545379 -5.0997505 3.5543718 1.622648 -3.013489 3.7861786
-3.3225648 -5.9497094 7.572357 -8.963199 -7.495088 10.6631155 0.0 0.0
0.0 0.0 0.0 0.0 0.0 0.0 0.0 0.0
0.0 0.0 0.0 0.0 0.0 0.0 0.0 0.0
0.0 0.0 0.0 0.0 0.0 0.0 0.0 0.0
0.0 0.23180684 -0.6181516 0.38634476 0.3090758 -0.7726895 0.38634476 0.23180684
-0.6181516 0.23180684 0.23180684 -0.6181516 0.3090758 0.3090758 -0.69542056 0.38634476
0.3090758 -0.4636137 0.38634476 0.23180684 -0.54088265 0.3090758 0.23180684 -0.6181516
0.3090758 0.23180684 -0.4636137 0.23180684 5.2542887 -2.1635306 -1.9317237 2.3180685
-2.0089927 -0.38634476 1.0044963 -2.1635306 0.38634476 3.013489 -2.1635306 -0.23180684
1.2363032 -1.7771859 0.54088265 0.54088265 -1.3135722 1.0817653 1.2363032 -1.7771859
0.3090758 -0.07726895 -0.8499585 1.0817653 -0.07726895 -1.699917 1.0817653 -1.1590343
1.1590343 -0.07726895 -0.69542056 0.7726895 -0.1545379 0.0 0.4636137 -0.23180684
-1.1590343 0.7726895 0.07726895 -0.6181516 0.54088265 0.0 -0.07726895 0.23180684
-0.23180684 -0.38634476 0.4636137 0.0 -0.3090758 0.3090758 0.07726895 -0.1545379
0.38634476 0.0 -0.1545379 -0.07726895 0.1545379 -0.3090758 0.07726895 0.23180684
-0.23180684 0.1545379 0.1545379 -0.3090758 0.0 0.23180684 -0.4636137 0.1545379
0.38634476 -0.38634476 0.1545379 0.1545379 -0.38634476 0.07726895 0.3090758 -0.54088265
0.1545379 0.38634476 -0.4636137 0.1545379 0.3090758 0.0 0.0 0.0
0.0 0.0 0.0 0.0 0.0 0.0 0.0 0.0
0.0 0.0 0.0 0.0 0.0 0.0 0.0 0.0
0.0 0.0 0.0 0.0 0.0 0.0 0.0 0.0
0.9272274 0.9272274 0.6181516 -0.3090758 -0.69542056 -0.69542056 0.9272274 1.0044963
0.54088265 0.69542056 0.54088265 0.0 -2.5498753 -2.858951 -1.3908411 -0.54088265
-0.3090758 0.07726895 0.4636137 0.54088265 0.38634476 -0.38634476 0.0 0.0
0.3090758 0.4636137 0.07726895 2.3953376 3.6316407 1.622648 0.23180684 1.0817653
0.23180684 0.23180684 0.9272274 1.4681101 2.7816823 4.327061 1.7771859 1.0044963
00000000: 786b 7c79 6b7b 776c 7c79 667a 7c69 7a7a
00000010: 6c78 7769 7e7a 6b7c 7a6c 7982 3474 9157
00000020: 8d8f 5a90 975f 8887 58a9 6133 a38a 4ea6
00000030: 4a28 d701 14ff 7575 7575 7575 7575 7575
00000040: 7575 7575 7575 7575 7575 7575 7575 7575
00000050: 7578 6d7a 796b 7a78 6d78 786d 7979 6c7a
00000060: 796f 7a78 6e79 786d 7978 6f78 b959 5c93
00000070: 5b70 8259 7a9c 5972 855e 7c7c 6483 855e
00000080: 7974 6a83 745f 8366 8474 6c7f 7375 7b72
00000090: 667f 766d 7c75 7478 7270 7b75 7179 7673
000000a0: 7a75 7374 7771 7678 7277 7771 7578 6f77
000000b0: 7a70 7777 7076 796e 777a 6f77 7975 7575
000000c0: 7575 7575 7575 7575 7575 7575 7575 7575
000000d0: 7575 7575 7575 7575 8181 7d71 6c6c 8182
000000e0: 7c7e 7c75 5450 636e 7176 7b7c 7a70 7575
000000f0: 797b 7694 a48a 7883 7878 8188 99ad 8c82

MobilenetV2/expanded_conv/depthwise/depthwise_Fold;MobilenetV2/expanded_conv/depthwise/weights_quant/FakeQuantWithMinMaxVars u1 [1, 3, 3, 16] scale=0.06414083 zero_point=185
-0.06414083 -0.19242248 -0.64140826 -0.19242248 0.12828165 0.0 0.12828165 -11.801912
-0.12828165 0.2565633 0.06414083 0.0 -2.8221965 0.5131266 -3.1429005 0.0
-0.32070413 0.0 -0.12828165 0.0 -0.06414083 -0.06414083 -0.38484496 -4.425717
0.12828165 -0.06414083 0.0 -0.06414083 1.6035206 1.0262532 -3.5918863 0.0
0.19242248 0.0 0.06414083 -0.12828165 0.0 0.12828165 0.19242248 -8.915575
0.0 0.0 0.0 -0.06414083 1.2828165 -0.06414083 0.5772674 0.0
-0.32070413 0.0 -0.8979716 -0.8338307 -0.12828165 0.2565633 -0.9621124 -2.6939147
-1.2186757 -0.06414083 0.0 -0.12828165 -5.516111 0.12828165 3.0146189 1.6035206
-1.2186757 0.0 -0.12828165 -0.8979716 -0.38484496 2.8221965 -1.6035206 0.5772674
0.06414083 -0.12828165 -1.3469573 -0.12828165 0.9621124 1.4110982 1.8600839 -0.12828165
-0.06414083 0.0 -0.8338307 0.06414083 0.12828165 -0.4489858 -0.64140826 0.5772674
0.0 0.0 0.32070413 -0.12828165 4.4898577 -0.19242248 0.0 -0.06414083
0.38484496 0.0 -0.32070413 0.38484496 0.06414083 -0.32070413 0.8979716 -6.734787
0.06414083 0.0 0.12828165 -0.06414083 0.7055491 -0.64140826 0.32070413 -0.12828165
0.7696899 0.0 0.0 0.4489858 0.0 -1.6035206 1.0262532 -3.399464
0.06414083 0.0 0.32070413 -0.12828165 0.32070413 -1.1545348 1.5393798 -0.06414083
0.19242248 0.0 -0.4489858 -0.06414083 -0.06414083 0.0 0.5772674 -0.12828165
0.0 0.0 -0.12828165 -0.12828165 -0.9621124 -0.32070413 -0.5772674 0.0
00000000: b8b6 afb6 bbb9 bb01 b7bd bab9 8dc1 88b9
00000010: b4b9 b7b9 b8b8 b374 bbb8 b9b8 d2c9 81b9
00000020: bcb9 bab7 b9bb bc2e b9b9 b9b8 cdb8 c2b9
00000030: b4b9 abac b7bd aa8f a6b8 b9b7 63bb e8d2
00000040: a6b9 b7ab b3e5 a0c2 bab7 a4b7 c8cf d6b7
00000050: b8b9 acba bbb2 afc2 b9b9 beb7 ffb6 b9b8
00000060: bfb9 b4bf bab4 c750 bab9 bbb8 c4af beb7
00000070: c5b9 b9c0 b9a0 c984 bab9 beb7 bea7 d1b8
00000080: bcb9 b2b8 b8b9 c2b7 b9b9 b7b7 aab4 b0b9

MobilenetV2/expanded_conv/project/Conv2D_Fold;MobilenetV2/expanded_conv/project/weights_quant/FakeQuantWithMinMaxVars u1 [8, 1, 1, 16] scale=0.062492773 zero_point=133
0.31246388 0.81240606 0.0 -0.18747832 1.2498555 0.124985546 0.31246388 0.0
-6.061799 -2.1247542 -8.249046 0.0 0.37495664 0.062492773 0.562435 2.6871893
-0.49994218 -0.62492776 0.0 -0.18747832 -0.6874205 -0.62492776 0.37495664 0.0
-1.1873627 1.3123482 7.6241183 0.0 0.0 0.0 0.18747832 6.061799
-0.062492773 -1.3123482 0.0 -1.937276 -2.3747253 -2.1247542 2.6246965 0.0
0.99988437 -0.99988437 -1.937276 0.0 0.18747832 -1.8122904 -0.31246388 1.374841
-4.5619726 -0.562435 0.0 -3.9995375 -0.62492776 1.8747832 0.8748988 0.0
-0.18747832 -0.18747832 -1.12487 0.0 -0.062492773 0.31246388 -0.4374494 -0.37495664
0.0 -1.12487 0.0 -0.6874205 -0.562435 -1.2498555 -2.5622036 0.0
-0.7499133 0.24997109 0.0 0.0 -3.1246386 1.6873049 -1.4998266 -0.37495664
0.0 0.7499133 0.0 0.6874205 0.124985546 0.81240606 3.2496243 0.0
-0.9373916 0.062492773 0.062492773 0.0 -3.1871314 -2.187247 -0.18747832 -0.49994218
0.124985546 0.31246388 0.0 0.24997109 0.24997109 0.24997109 0.37495664 0.0
0.062492773 0.0 -0.062492773 0.0 0.7499133 -0.18747832 -5.3743787 -0.062492773
-0.24997109 -1.0623771 0.0 -0.31246388 -1.0623771 -0.8748988 0.562435 0.0
-2.8746676 1.8122904 1.6873049 0.0 1.8747832 -0.6874205 -0.18747832 -2.499711
00000000: 8a92 8582 9987 8a85 2463 0185 8b86 8eb0
00000010: 7d7b 8582 7a7b 8b85 729a ff85 8585 88e6
00000020: 8470 8566 5f63 af85 9575 6685 8868 809b
00000030: 3c7c 8545 7ba3 9385 8282 7385 848a 7e7f
00000040: 8573 857a 7c71 5c85 7989 8585 53a0 6d7f
00000050: 8591 8590 8792 b985 7686 8685 5262 827d
00000060: 878a 8589 8989 8b85 8685 8485 9182 2f84
00000070: 8174 8580 7477 8e85 57a2 a085 a37a 825d

MobilenetV2/expanded_conv_1/expand/Conv2D_Fold;MobilenetV2/expanded_conv_1/expand/weights_quant/FakeQuantWithMinMaxVars u1 [48, 1, 1, 8] scale=0.0036623634 zero_point=124
0.036623634 0.02197418 -0.040285997 0.018311817 -0.07690963 -0.0036623634 -0.41384706 -0.01098709
0.062260177 -0.058597814 0.040285997 0.0 -0.029298907 -0.025636544 -0.04394836 -0.09155908
0.014649454 0.036623634 -0.0036623634 0.040285997 0.07324727 0.0036623634 0.47976962 -0.014649454
0.0 -0.0036623634 0.01098709 -0.12085799 -0.036623634 0.047610722 0.01098709 0.007324727
-0.03296127 0.0 0.09155908 0.03296127 -0.2710149 0.29665142 0.047610722 0.036623634
-0.0036623634 -0.014649454 -0.0036623634 -0.0036623634 0.025636544 0.0036623634 0.113533266 -0.007324727
-0.018311817 -0.014649454 -0.13550745 0.02197418 0.21607944 -0.25270307 -0.05127309 -0.03296127
-0.018311817 0.007324727 0.098883815 0.20875472 0.062260177 -0.05127309 -0.025636544 0.036623634
-0.007324727 -0.0036623634 0.12085799 0.007324727 0.0 0.029298907 -0.01098709 0.04394836
-0.098883815 -0.09155908 -0.007324727 0.0 -0.0036623634 -0.007324727 0.007324727 -0.0036623634
-0.02197418 0.03296127 -0.014649454 -0.0036623634 0.014649454 0.007324727 -0.02197418 0.05127309
0.13550745 0.13550745 0.02197418 -0.007324727 0.007324727 0.007324727 -0.01098709 0.007324727
-0.09155908 0.05493545 -0.025636544 0.029298907 0.47976962 0.47976962 -0.14283217 -0.34426215
-0.05493545 0.025636544 -0.029298907 -0.0036623634 0.0036623634 0.014649454 -0.007324727 0.062260177
0.05127309 -0.05493545 0.029298907 0.0 -0.02197418 0.01098709 0.007324727 -0.10254618
0.062260177 -0.095221445 -0.029298907 -0.0036623634 0.05127309 0.047610722 -0.014649454 0.124520354
-0.18311816 -0.16846871 0.0 -0.014649454 0.0 -0.029298907 0.007324727 -0.0036623634
0.018311817 0.095221445 0.0 -0.018311817 0.02197418 0.0 0.01098709 0.04394836
-0.0036623634 0.01098709 -0.01098709 0.01098709 0.02197418 0.018311817 0.007324727 0.02197418
-0.014649454 0.018311817 0.0036623634 -0.01098709 -0.040285997 -0.04394836 0.01098709 0.029298907
0.040285997 -0.05127309 0.014649454 0.0 -0.01098709 -0.018311817 -0.014649454 -0.080571994
-0.036623634 0.05127309 -0.02197418 0.0 0.01098709 0.0 -0.047610722 0.07324727
-0.040285997 0.047610722 -0.025636544 -0.02197418 0.0036623634 -0.029298907 0.007324727 0.069584906
0.058597814 -0.036623634 0.02197418 0.0036623634 -0.04394836 -0.007324727 -0.01098709 -0.07324727
0.040285997 -0.04394836 -0.02197418 0.0036623634 0.02197418 0.02197418 -0.007324727 0.069584906
-0.036623634 0.058597814 0.05127309 -0.0036623634 -0.036623634 -0.05127309 0.0036623634 -0.080571994
-0.007324727 0.007324727 0.07324727 0.05127309 -0.08423436 0.10254618 0.007324727 0.029298907
0.04394836 -0.0036623634 0.007324727 0.018311817 0.025636544 0.029298907 0.05127309 -0.040285997
-0.16846871 0.14283217 -0.098883815 0.02197418 0.095221445 0.029298907 -0.014649454 0.14649454
-0.06592254 0.062260177 0.036623634 -0.014649454 0.19410525 0.17579344 -0.03296127 -0.17579344
0.01098709 0.0 -0.28200197 0.040285997 -0.062260177 0.0036623634 0.03296127 -0.098883815
-0.080571994 0.05493545 0.047610722 0.0 -0.02197418 -0.05493545 0.007324727 -0.08789672
00000000: 8682 7181 677b 0b79 8d6c 877c 7475 7063
00000010: 8086 7b87 907d ff78 7c7b 7f5b 7289 7f7e
00000020: 737c 9585 32cd 8986 7b78 7b7b 837d 9b7a
00000030: 7778 5782 b737 6e73 777e 97b5 8d6e 7586
00000040: 7a7b 9d7e 7c84 7988 6163 7a7c 7b7a 7e7b
00000050: 7685 787b 807e 768a a1a1 827a 7e7e 797e
00000060: 638b 7584 ffff 551e 6d83 747b 7d80 7a8d
00000070: 8a6d 847c 767f 7e60 8d62 747b 8a89 789e
00000080: 4a4e 7c78 7c74 7e7b 8196 7c77 827c 7f88
00000090: 7b7f 797f 8281 7e82 7881 7d79 7170 7f84
000000a0: 876e 807c 7977 7866 728a 767c 7f7c 6f90
000000b0: 7189 7576 7d74 7e8f 8c72 827d 707a 7968
000000c0: 8770 767d 8282 7a8f 728c 8a7b 726e 7d66
000000d0: 7a7e 908a 6598 7e84 887b 7e81 8384 8a71
000000e0: 4ea3 6182 9684 78a4 6a8d 8678 b1ac 734c
000000f0: 7f7c 2f87 6b7d 8561 668b 897c 766d 7e64

MobilenetV2/expanded_conv_1/depthwise/depthwise_Fold;MobilenetV2/expanded_conv_1/depthwise/weights_quant/FakeQuantWithMinMaxVars u1 [1, 3, 3, 48] scale=0.02241571 zero_point=156
-0.17932568 -0.13449426 -0.04483142 0.69488704 -0.17932568 -0.04483142 0.13449426 0.2017414
-1.3001112 -1.4346055 2.1967397 0.06724713 -0.02241571 0.112078555 -0.49314564 -0.29140425
0.2017414 -0.7845499 1.5242683 -0.04483142 -0.13449426 0.44831422 0.26898852 0.851797
0.87421274 0.04483142 0.5828085 0.53797704 0.15690997 -0.13449426 -0.56039274 1.2552798
0.08966284 0.24657282 0.33623567 -0.31381994 0.29140425 0.9862913 -1.0311227 -0.02241571
-0.53797704 0.04483142 -0.02241571 0.06724713 -0.24657282 -0.08966284 0.24657282 -0.02241571
-0.44831422 -0.29140425 0.0 -0.51556134 -0.08966284 0.02241571 0.08966284 0.06724713
0.04483142 1.6811783 -1.3449427 0.33623567 -0.112078555 0.5828085 0.26898852 0.0
0.06724713 2.2191553 -3.474435 -0.08966284 1.1207855 1.0535384 -0.08966284 0.67247134
0.24657282 1.1207855 0.24657282 0.06724713 0.15690997 0.13449426 -0.51556134 -0.31381994
0.02241571 -0.06724713 0.24657282 0.08966284 0.4258985 -1.5018526 -2.5329752 0.08966284
0.44831422 1.4794369 0.87421274 0.2017414 -0.4258985 -1.2104484 -0.87421274 0.02241571
-0.06724713 -0.15690997 -0.02241571 -0.851797 0.13449426 -0.08966284 -0.08966284 0.0
0.8069656 -0.29140425 -0.24657282 0.31381994 -0.06724713 0.33623567 0.51556134 -0.33623567
0.08966284 -1.5242683 1.6139312 -0.13449426 0.67247134 0.22415711 0.13449426 0.08966284
-0.06724713 -0.29140425 -0.44831422 -0.5828085 0.08966284 0.0 -0.04483142 -0.26898852
0.08966284 0.06724713 0.08966284 0.26898852 0.04483142 0.47072992 -0.851797 -0.06724713
-0.35865137 0.2017414 0.47072992 -0.06724713 -0.04483142 0.08966284 0.6276399 -0.02241571
-0.04483142 -0.112078555 -0.2017414 1.2328641 -0.2017414 -0.31381994 0.31381994 0.47072992
-1.3001112 -0.5828085 -1.3897741 0.22415711 -0.02241571 -0.8293813 -0.4258985 -0.38106707
0.08966284 0.69488704 1.1207855 0.9862913 0.24657282 -0.29140425 0.38106707 -1.5915154
-2.107077 0.02241571 0.8293813 -1.0535384 0.15690997 -0.49314564 0.31381994 -2.0174139
0.24657282 -0.4258985 0.13449426 -0.53797704 0.15690997 1.9725826 0.76213413 -0.76213413
0.56039274 0.08966284 -0.08966284 0.04483142 0.4034828 0.02241571 0.8069656 -0.22415711
-0.02241571 -0.51556134 -0.4258985 -0.04483142 -0.112078555 -0.38106707 0.2017414 0.2017414
0.53797704 0.6276399 0.08966284 0.22415711 -0.17932568 -1.860504 -0.29140425 -0.22415711
0.31381994 -1.8380883 0.112078555 0.02241571 -1.4346055 -0.51556134 -0.89662844 -1.0759541
-1.5242683 1.165617 0.4034828 1.0535384 0.15690997 0.0 0.33623567 0.87421274
0.2017414 -0.94145983 -0.112078555 0.29140425 0.15690997 -2.8243794 1.860504 1.2552798
1.3449427 -2.331234 1.0311227 0.26898852 0.73971844 0.49314564 -1.8380883 -0.13449426
-0.02241571 -0.22415711 -0.08966284 -0.8069656 0.17932568 -0.17932568 -0.24657282 -0.13449426
1.165617 -0.06724713 0.7845499 0.2017414 -0.08966284 -0.96387553 0.47072992 -0.24657282
00000000: 9496 9abb 949a a2a5 625c fe9f 9ba1 868f
00000010: a579 e09a 96b0 a8c2 c39e b6b4 a396 83d4
00000020: a0a7 ab8e a9c8 6e9b 849e 9b9f 9198 a79b
00000030: 888f 9c85 989d a09f 9ee7 60ab 97b6 a89c
00000040: 9fff 0198 cecb 98ba a7ce a79f a3a2 858e
00000050: 9d99 a7a0 af59 2ba0 b0de c3a5 8966 759d
00000060: 9995 9b76 a298 989c c08f 91aa 99ab b38d
00000070: a058 e496 baa6 a2a0 998f 8882 a09c 9a90
00000080: a09f a0a8 9eb1 7699 8ca5 b199 9aa0 b89b
00000090: 9a97 93d3 938e aab1 6282 5ea6 9b77 898b
000000a0: a0bb cec8 a78f ad55 3e9d c16d a386 aa42
000000b0: a789 a284 a3f4 be7a b5a0 989e ae9d c092
000000c0: 9b85 899a 978b a5a5 b4b8 a0a6 9449 8f92
000000d0: aa4a a19d 5c85 746c 58d0 aecb a39c abc3
000000e0: a572 97a9 a31e efd4 d834 caa8 bdb2 4a96
000000f0: 9b92 9878 a494 9196 d099 bfa5 9871 b191

MobilenetV2/expanded_conv_1/project/Conv2D_Fold;MobilenetV2/expanded_conv_1/project/weights_quant/FakeQuantWithMinMaxVars u1 [12, 1, 1, 48] scale=0.024238471 zero_point=124
2.4480855 -1.0422542 -2.1329854 -0.2423847 0.31510013 -2.7147088 -0.36357707 0.26662317
-0.096953884 -0.07271542 0.26662317 0.65443873 -0.29086167 0.6059618 -0.31510013 -0.14543083
-0.07271542 0.0 0.53324634 0.024238471 0.3393386 -2.108747 0.096953884 -0.1696693
0.07271542 -0.024238471 0.2423847 0.5090079 0.0 -0.65443873 -0.3393386 0.096953884
-0.1696693 1.2361621 -0.07271542 -0.31510013 -0.26662317 -0.36357707 -0.1696693 0.048476942
2.0117931 -0.024238471 0.0 0.43629247 -0.31510013 0.096953884 -0.14543083 0.6786772
-0.19390777 -0.5574848 -0.4847694 -0.024238471 -0.2423847 0.024238471 -0.19390777 0.29086167
0.0 0.19390777 -0.9210619 -0.53324634 0.72715414 -0.3393386 -2.4480855 -0.46053094
-0.46053094 0.412054 0.824108 -0.63020027 -0.2423847 0.9210619 0.12119235 -0.4847694
0.4847694 0.4847694 0.19390777 -1.8906007 -0.12119235 0.19390777 -0.12119235 0.29086167
0.14543083 0.096953884 -2.0360315 0.048476942 -0.12119235 1.0907311 0.024238471 0.53324634
0.4847694 0.38781554 0.38781554 -0.29086167 -0.46053094 0.5090079 0.14543083 -0.43629247
0.048476942 0.096953884 0.38781554 -2.2784162 0.1696693 -0.31510013 -0.2423847 -2.0117931
-1.2604005 0.1696693 0.14543083 0.024238471 0.024238471 0.3393386 0.1696693 0.07271542
-0.1696693 0.21814623 -0.19390777 -0.46053094 0.29086167 0.2423847 0.19390777 0.2423847
0.096953884 0.07271542 -0.87258494 0.0 -0.024238471 -0.096953884 -1.9633162 0.19390777
-0.2423847 -0.77563107 0.21814623 -2.5935163 -2.835901 0.12119235 0.0 0.19390777
0.38781554 0.21814623 -0.1696693 -2.1814623 0.2423847 0.14543083 0.07271542 -0.12119235
0.19390777 0.26662317 0.096953884 -0.29086167 0.77563107 0.58172333 0.5574848 -0.43629247
-0.12119235 0.07271542 0.26662317 0.5574848 -0.46053094 0.38781554 -1.0180157 0.2423847
0.4847694 -0.096953884 0.21814623 1.6239775 0.21814623 -0.12119235 -0.5090079 0.19390777
0.048476942 -0.14543083 -0.70291567 -0.3393386 1.6724545 0.36357707 0.0 0.07271542
-0.72715414 3.1752398 -0.79986954 -0.36357707 -0.21814623 -0.4847694 -0.07271542 0.048476942
-0.9210619 0.0 -0.12119235 0.14543083 0.19390777 -0.12119235 -0.21814623 -0.14543083
0.14543083 -0.9210619 0.19390777 0.2423847 0.21814623 -0.1696693 0.07271542 0.12119235
0.412054 -1.0664927 -0.19390777 -1.7694083 -0.53324634 -2.0360315 -0.048476942 -0.9695388
-1.7209314 -0.99377733 0.4847694 0.07271542 -1.9633162 -0.048476942 -0.6059618 -1.9633162
-0.58172333 0.94530034 -0.2423847 0.5090079 0.2423847 0.07271542 0.07271542 -0.79986954
-0.36357707 0.3393386 0.4847694 -0.14543083 -0.21814623 1.8178853 -0.36357707 -1.1149696
0.6786772 -0.72715414 1.0664927 0.07271542 -1.7936468 0.19390777 1.4785467 0.6059618
0.70291567 1.1634467 0.43629247 0.096953884 0.14543083 0.21814623 -0.1696693 -0.096953884
-0.19390777 -0.07271542 -0.70291567 -0.26662317 0.70291567 -1.3573544 0.096953884 0.0
00000000: e151 2472 890c 6d87 7879 8797 7095 6f76
00000010: 797c 927d 8a25 8075 7f7b 8691 7c61 6e80
00000020: 75af 796f 716d 757e cf7b 7c8e 6f80 7698
00000030: 7465 687b 727d 7488 7c84 5666 9a6e 1769
00000040: 698d 9e62 72a2 8168 9090 842e 7784 7788
00000050: 8280 287e 77a9 7d92 908c 8c70 6991 826a
00000060: 7e80 8c1e 836f 7229 4883 827d 7d8a 837f
00000070: 7585 7469 8886 8486 807f 587c 7b78 2b84
00000080: 725c 8511 0781 7c84 8c85 7522 8682 7f77
00000090: 8487 8070 9c94 936a 777f 8793 698c 5286
000000a0: 9078 85bf 8577 6784 7e76 5f6e c18b 7c7f
000000b0: 5eff 5b6d 7368 797e 567c 7782 8477 7376
000000c0: 8256 8486 8575 7f81 8d50 7433 6628 7a54
000000d0: 3553 907f 2b7a 632b 64a3 7291 867f 7f5b
000000e0: 6d8a 9076 73c7 6d4e 985e a87f 3284 b995
000000f0: 99ac 8e80 8285 7578 7479 5f71 9944 807c

MobilenetV2/expanded_conv_2/expand/Conv2D_Fold;MobilenetV2/expanded_conv_2/expand/weights_quant/FakeQuantWithMinMaxVars u1 [72, 1, 1, 12] scale=0.0055388384 zero_point=132
-0.088621415 0.14954863 -0.016616516 0.038771868 -0.06646606 0.06646606 -0.03323303 0.0
0.1440098 0.038771868 0.23817006 -0.016616516 0.0055388384 -0.038771868 -0.0720049 0.03323303
0.1883205 0.13847096 -0.2603254 -0.016616516 0.038771868 0.03323303 0.0055388384 -0.33786914
0.011077677 -0.08308258 -0.055388384 0.060927223 -0.09416025 0.099699095 -0.376641 -0.049849547
-0.09416025 -0.027694192 -0.022155354 -0.6203499 0.055388384 0.19939819 0.038771868 0.027694192
0.038771868 -0.011077677 -0.171704 0.011077677 -0.09416025 0.1440098 -0.038771868 -0.11631561
0.343408 0.24924773 0.060927223 -0.027694192 -0.06646606 0.14954863 -0.055388384 0.044310708
0.376641 0.099699095 0.515112 -0.016616516 0.0 -0.33233032 -0.022155354 0.0055388384
0.038771868 0.055388384 -0.011077677 0.022155354 0.09416025 -0.21047586 0.13847096 0.055388384
0.011077677 0.077543736 0.022155354 -0.044310708 -0.022155354 0.027694192 0.03323303 -0.016616516
-0.0720049 -0.10523793 0.09416025 -0.022155354 -0.23263122 -0.0055388384 0.0055388384 0.027694192
0.027694192 -0.038771868 -0.0055388384 0.0055388384 -0.044310708 -0.049849547 0.0055388384 0.016616516
0.016616516 0.038771868 -0.0055388384 0.049849547 -0.11077677 -0.038771868 0.06646606 -0.0055388384
-0.022155354 -0.022155354 -0.0055388384 -0.038771868 -0.011077677 -0.0055388384 0.0 0.027694192
0.016616516 0.0 0.011077677 -0.16616516 0.011077677 0.0055388384 0.011077677 0.03323303
-0.044310708 0.0055388384 0.0055388384 -0.0055388384 -0.011077677 -0.011077677 0.0 0.0
-0.0055388384 0.011077677 0.0 -0.0055388384 -0.011077677 0.03323303 -0.011077677 0.027694192
0.0 0.027694192 -0.011077677 0.011077677 0.055388384 0.022155354 0.060927223 -0.0055388384
-0.0055388384 0.03323303 0.0055388384 -0.11077677 -0.03323303 0.038771868 0.0055388384 -0.038771868
-0.0055388384 -0.0055388384 0.038771868 -0.016616516 -0.049849547 -0.022155354 -0.011077677 0.0
-0.11077677 -0.72558784 0.40987405 -0.08308258 0.23263122 -0.049849547 0.09416025 -0.38217986
-0.0720049 0.06646606 0.011077677 0.027694192 -0.03323303 0.049849547 -0.055388384 0.027694192
-0.049849547 0.32125264 0.011077677 0.0055388384 0.0055388384 0.0055388384 -0.038771868 -0.1440098
-0.016616516 0.016616516 -0.011077677 0.36556333 -0.011077677 0.0 -0.022155354 -0.027694192
0.18278167 -0.13293213 0.0055388384 -0.022155354 0.060927223 0.03323303 0.0055388384 -0.016616516
-0.0055388384 0.0 -0.12739329 -0.038771868 -0.0055388384 0.26586425 -0.03323303 0.09416025
-0.044310708 0.29909727 0.099699095 -0.044310708 0.09416025 -0.049849547 -0.2880196 -0.16062632
-0.12185445 -0.022155354 -0.0055388384 0.011077677 0.0 0.011077677 0.0 0.0055388384
-0.038771868 -0.016616516 -0.03323303 0.0055388384 -0.049849547 -0.055388384 -0.12185445 0.39879638
0.049849547 -0.08308258 -0.088621415 0.099699095 0.038771868 0.0055388384 0.0720049 0.03323303
-0.060927223 0.011077677 0.011077677 0.0055388384 0.011077677 0.055388384 0.022155354 0.0
0.15508747 0.011077677 -0.12739329 -0.022155354 -0.37110218 0.011077677 0.016616516 0.0055388384
00000000: 749f 818b 7890 7e84 9e8b af81 857d 778a
00000010: a69d 5581 8b8a 8547 8675 7a8f 7396 407b
00000020: 737f 8014 8ea8 8b89 8b82 6586 739e 7d6f
00000030: c2b1 8f7f 789f 7a8c c896 e181 8448 8085
00000040: 8b8e 8288 955e 9d8e 8692 887c 8089 8a81
00000050: 7771 9580 5a83 8589 897d 8385 7c7b 8587
00000060: 878b 838d 707d 9083 8080 837d 8283 8489
00000070: 8784 8666 8685 868a 7c85 8583 8282 8484
00000080: 8386 8483 828a 8289 8489 8286 8e88 8f83
00000090: 838a 8570 7e8b 857d 8383 8b81 7b80 8284
000000a0: 7001 ce75 ae7b 953f 7790 8689 7e8d 7a89
000000b0: 7bbe 8685 8585 7d6a 8187 82c6 8284 807f
000000c0: a56c 8580 8f8a 8581 8384 6d7d 83b4 7e95
000000d0: 7cba 967c 957b 5067 6e80 8386 8486 8485
000000e0: 7d81 7e85 7b7a 6ecc 8d75 7496 8b85 918a
000000f0: 7986 8685 868e 8884 a086 6d80 4186 8785

MobilenetV2/expanded_conv_2/depthwise/depthwise_Fold;MobilenetV2/expanded_conv_2/depthwise/weights_quant/FakeQuantWithMinMaxVars u1 [1, 3, 3, 72] scale=0.025317414 zero_point=149
0.0 0.101269655 0.20253931 -0.58230054 -0.07595224 -0.050634827 -0.22785673 -0.27849156
-0.30380896 0.50634825 -0.40507862 0.07595224 1.8481712 -0.025317414 -0.15190448 -0.15190448
-0.15190448 0.0 -0.101269655 -0.15190448 -0.050634827 0.025317414 0.101269655 0.3544438
0.0 0.0 -0.025317414 -0.37976122 0.12658706 -0.025317414 0.1772219 -0.3291264
0.0 0.050634827 0.15190448 0.0 -0.07595224 -0.025317414 0.0 -0.20253931
-0.050634827 -0.20253931 -0.40507862 -0.050634827 -0.15190448 -0.101269655 -0.30380896 0.050634827
-0.025317414 0.63293535 0.025317414 -0.48103085 0.101269655 0.12658706 0.07595224 -0.07595224
0.12658706 -0.1772219 0.0 0.48103085 -0.3291264 0.3544438 0.025317414 -0.07595224
0.25317413 -0.07595224 0.050634827 0.12658706 0.0 -0.3291264 0.0 0.27849156
0.0 0.25317413 -0.025317414 0.83547467 0.15190448 0.07595224 0.07595224 -0.48103085
0.3544438 -0.734205 0.3544438 -0.8861095 -2.0760279 0.025317414 -0.15190448 0.07595224
-0.25317413 0.050634827 0.93674433 -0.25317413 -0.30380896 -0.3544438 -0.50634825 -0.63293535
0.0 0.050634827 0.27849156 -0.3544438 -0.25317413 0.20253931 0.43039602 0.1772219
0.0 0.30380896 -0.12658706 -0.25317413 0.050634827 0.22785673 -0.12658706 0.050634827
-0.20253931 -0.15190448 0.050634827 -0.1772219 0.0 0.20253931 0.3544438 1.3165056
-0.20253931 -0.25317413 -0.40507862 0.48103085 -0.1772219 -0.7088876 -0.07595224 0.45571345
0.22785673 0.12658706 0.12658706 -0.5569831 -0.40507862 0.734205 -0.050634827 0.25317413
0.025317414 -0.25317413 0.07595224 0.43039602 0.25317413 0.30380896 -0.22785673 0.3544438
-0.050634827 0.025317414 0.20253931 0.1772219 -0.025317414 -0.07595224 -0.025317414 -0.20253931
-0.25317413 -0.40507862 0.15190448 0.22785673 0.101269655 -0.025317414 -0.025317414 0.0
-0.45571345 0.0 0.15190448 -0.15190448 -0.1772219 0.0 -0.12658706 0.07595224
-0.050634827 -0.1772219 -0.025317414 -0.101269655 0.15190448 -0.20253931 -0.3544438 0.07595224
-0.050634827 0.025317414 0.101269655 -0.025317414 0.0 -0.1772219 0.0 0.101269655
0.1772219 -0.22785673 -0.22785673 -0.050634827 -0.12658706 -0.101269655 -0.15190448 0.050634827
-0.050634827 0.9114269 0.050634827 0.050634827 0.07595224 0.15190448 0.0 0.025317414
0.025317414 0.5316657 -0.101269655 0.40507862 0.025317414 0.5569831 -0.12658706 -0.20253931
0.27849156 0.25317413 0.050634827 -0.025317414 -0.20253931 -0.025317414 0.050634827 -0.25317413
0.025317414 0.30380896 0.050634827 0.30380896 0.3291264 -0.20253931 0.25317413 -0.025317414
-0.1772219 -0.83547467 -0.48103085 0.45571345 -1.6203145 -0.101269655 -0.07595224 -0.45571345
0.45571345 0.15190448 0.15190448 -0.101269655 0.3291264 -0.07595224 -0.45571345 2.683646
0.101269655 -0.3291264 0.15190448 -0.07595224 0.27849156 -1.5190449 -0.050634827 -0.3291264
0.3544438 -0.12658706 0.050634827 -0.07595224 -0.63293535 -0.101269655 -0.101269655 -0.81015724
00000000: 9599 9d7e 9293 8c8a 89a9 8598 de94 8f8f
00000010: 8f95 918f 9396 99a3 9595 9486 9a94 9c88
00000020: 9597 9b95 9294 958d 938d 8593 8f91 8997
00000030: 94ae 9682 999a 9892 9a8e 95a8 88a3 9692
00000040: 9f92 979a 9588 95a0 959f 94b6 9b98 9882
00000050: a378 a372 4396 8f98 8b97 ba8b 8987 817c
00000060: 9597 a087 8b9d a69c 95a1 908b 979e 9097
00000070: 8d8f 978e 959d a3c9 8d8b 85a8 8e79 92a7
00000080: 9e9a 9a7f 85b2 939f 968b 98a6 9fa1 8ca3
00000090: 9396 9d9c 9492 948d 8b85 9b9e 9994 9495
000000a0: 8395 9b8f 8e95 9098 938e 9491 9b8d 8798
000000b0: 9396 9994 958e 9599 9c8c 8c93 9091 8f97
000000c0: 93b9 9797 989b 9596 96aa 91a5 96ab 908d
000000d0: a09f 9794 8d94 978b 96a1 97a1 a28d 9f94
000000e0: 8e74 82a7 5591 9283 a79b 9b91 a292 83ff
000000f0: 9988 9b92 a059 9388 a390 9792 7c91 9175

MobilenetV2/expanded_conv_2/project/Conv2D_Fold;MobilenetV2/expanded_conv_2/project/weights_quant/FakeQuantWithMinMaxVars u1 [12, 1, 1, 72] scale=0.046704818 zero_point=103
7.099132 -0.5604578 -0.42034337 0.14011446 0.18681927 0.3269337 -0.3269337 -1.3544397
-0.84068674 -0.3269337 2.5220602 -0.3269337 -1.0742108 0.70057225 -0.14011446 -1.0742108
-1.0742108 -0.18681927 5.13753 1.4945542 0.2802289 5.4644637 -0.093409635 -0.70057225
0.093409635 -0.6538674 -0.70057225 -0.18681927 1.2143253 0.37363854 2.568765 0.70057225
6.071626 1.3077348 -0.2802289 -0.23352408 -0.70057225 1.1209157 0.60716265 -0.18681927
-0.23352408 0.14011446 3.549566 0.093409635 -0.046704818 -0.84068674 -1.774783 -1.774783
1.3077348 -0.84068674 -1.8214879 -0.46704817 -2.3352408 0.7939819 -0.3269337 -2.9891083
-0.046704818 0.513753 -3.2693372 0.7472771 -1.027506 -1.3544397 -0.8873915 -0.513753
-0.70057225 -1.4478494 -0.60716265 1.3544397 0.84068674 0.70057225 0.23352408 -0.42034337
-4.763891 -1.6813735 0.7472771 -0.18681927 0.513753 -0.84068674 -0.37363854 2.7088795
-0.46704817 0.42034337 2.2418313 -0.6538674 -0.7939819 0.7472771 -1.774783 -1.2143253
-0.37363854 1.6346686 2.288536 0.046704818 1.0742108 0.98080117 0.18681927 -3.0825179
-2.1484215 0.8873915 1.1209157 1.4945542 0.0 -0.513753 1.0742108 -3.2226324
-2.8489938 -0.513753 0.3269337 1.4478494 -2.2418313 -2.7088795 -0.513753 -3.5028613
-0.093409635 0.093409635 3.6896806 -0.84068674 2.2418313 1.4945542 -0.3269337 1.8214879
-0.5604578 0.42034337 0.14011446 -0.093409635 -0.37363854 -2.1484215 -1.1209157 1.3544397
-0.8873915 -0.37363854 -1.8681927 0.14011446 -0.6538674 0.84068674 0.0 -2.9891083
1.027506 -1.3077348 0.093409635 -0.23352408 -0.5604578 -2.1951265 -2.7555842 -0.2802289
0.23352408 0.0 -0.046704818 -0.046704818 -0.2802289 0.23352408 0.0 0.093409635
0.23352408 0.0 0.14011446 0.046704818 0.18681927 -0.14011446 0.14011446 0.18681927
0.093409635 -0.23352408 0.093409635 -0.14011446 0.14011446 -0.093409635 0.513753 0.0
0.18681927 0.093409635 0.046704818 0.2802289 -0.093409635 0.093409635 0.0 0.093409635
0.046704818 -0.14011446 -0.23352408 -0.14011446 0.046704818 0.18681927 -1.8214879 0.23352408
0.18681927 0.14011446 1.5412589 -0.046704818 0.14011446 0.18681927 0.0 0.2802289
0.0 -0.046704818 -0.046704818 0.18681927 -0.14011446 0.2802289 0.18681927 0.46704817
0.046704818 0.0 0.093409635 0.14011446 0.046704818 -0.3269337 0.2802289 0.23352408
-0.2802289 -0.14011446 -0.046704818 0.37363854 0.093409635 0.0 0.093409635 0.046704818
-0.093409635 0.14011446 -0.5604578 0.2802289 2.055012 0.093409635 -0.23352408 0.513753
-0.14011446 0.7472771 -0.093409635 -0.2802289 -0.18681927 -0.60716265 0.093409635 -0.6538674
-0.70057225 0.46704817 -0.7472771 1.8681927 -0.23352408 -0.093409635 -0.42034337 -0.37363854
0.18681927 -0.093409635 -0.23352408 -1.4011445 -0.513753 0.093409635 -0.37363854 -0.14011446
-0.046704818 -0.18681927 -0.6538674 -0.46704817 -0.2802289 -0.37363854 -0.093409635 -0.46704817
00000000: ff5b 5e6a 6b6e 604a 5560 9d60 5076 6450
00000010: 5063 d587 6ddc 6558 6959 5863 816f 9e76
00000020: e983 6162 587f 7463 626a b369 6655 4141
00000030: 8355 405d 3578 6027 6672 2177 514a 545c
00000040: 5848 5a84 7976 6c5e 0143 7763 7255 5fa1
00000050: 5d70 9759 5677 414d 5f8a 9868 7e7c 6b25
00000060: 397a 7f87 675c 7e22 2a5c 6e86 372d 5c1c
00000070: 6569 b655 9787 608e 5b70 6a65 5f39 4f84
00000080: 545f 3f6a 5979 6727 7d4b 6962 5b38 2c61
00000090: 6c67 6666 616c 6769 6c67 6a68 6b64 6a6b
000000a0: 6962 6964 6a65 7267 6b69 686d 6569 6769
000000b0: 6864 6264 686b 406c 6b6a 8866 6a6b 676d
000000c0: 6766 666b 646d 6b71 6867 696a 6860 6d6c
000000d0: 6164 666f 6967 6968 656a 5b6d 9369 6272
000000e0: 6477 6561 635a 6959 5871 578f 6265 5e5f
000000f0: 6b65 6249 5c69 5f64 6663 595d 615f 655d

MobilenetV2/expanded_conv_3/expand/Conv2D_Fold;MobilenetV2/expanded_conv_3/expand/weights_quant/FakeQuantWithMinMaxVars u1 [72, 1, 1, 12] scale=0.011940583 zero_point=202
-0.035821747 0.0 0.023881165 0.0 -0.023881165 -0.15522757 0.08358408 -0.035821747
0.023881165 0.09552466 0.035821747 -0.09552466 -0.011940583 0.011940583 0.011940583 0.0
0.011940583 0.023881165 0.0 0.0 0.0 -0.011940583 -0.011940583 0.0
0.15522757 0.107465245 0.04776233 -0.107465245 0.14328699 -0.2746334 -0.19104932 -0.1313464
-0.2029899 -0.11940583 -0.3343363 -0.107465245 0.023881165 -0.035821747 0.071643494 0.023881165
-0.16716816 -0.2626928 0.035821747 0.011940583 -0.011940583 0.1313464 0.071643494 -0.14328699
-0.023881165 0.023881165 -0.011940583 0.0 0.011940583 0.035821747 0.0 0.011940583
0.0 -0.011940583 -0.011940583 -0.035821747 0.023881165 -0.059702914 0.071643494 0.42986098
0.1313464 -0.011940583 0.011940583 -0.22687107 0.059702914 0.04776233 0.09552466 0.035821747
0.011940583 -0.011940583 0.0 -0.059702914 -0.011940583 0.011940583 0.011940583 -0.1313464
-0.011940583 0.011940583 0.0 0.011940583 0.023881165 0.011940583 0.0 -0.023881165
0.04776233 0.035821747 -0.17910874 0.011940583 -0.011940583 0.023881165 0.011940583 0.09552466
0.0 -0.035821747 0.0 -0.011940583 0.059702914 -0.023881165 0.059702914 0.0
0.0 0.0 0.0 0.08358408 0.0 0.0 -0.035821747 0.11940583
0.0 -0.023881165 -0.011940583 -0.04776233 0.011940583 -0.011940583 0.0 0.035821747
-0.09552466 -0.08358408 0.011940583 -0.035821747 -0.059702914 -0.023881165 -0.5253856 -0.023881165
-0.071643494 0.14328699 0.071643494 0.21493049 0.059702914 0.08358408 0.035821747 -0.29851457
-0.1313464 0.11940583 -0.1313464 -0.107465245 0.107465245 -0.11940583 -0.08358408 0.011940583
0.011940583 -0.011940583 -0.035821747 -0.011940583 0.011940583 -0.035821747 0.0 0.0
0.0 -0.011940583 0.04776233 0.035821747 0.04776233 -0.107465245 0.04776233 0.023881165
0.035821747 0.059702914 0.023881165 0.0 0.035821747 -0.14328699 -0.059702914 0.035821747
0.09552466 -0.04776233 0.011940583 -0.011940583 0.011940583 -0.04776233 0.023881165 0.011940583
0.0 0.035821747 0.04776233 0.0 0.023881165 -0.023881165 -0.04776233 -0.071643494
-0.011940583 -0.011940583 0.0 -0.011940583 0.0 0.011940583 0.011940583 0.035821747
-0.15522757 0.071643494 0.0 0.011940583 -0.023881165 0.071643494 0.0 -0.011940583
0.023881165 -0.071643494 -0.059702914 -0.023881165 -0.023881165 0.0 0.0 -0.08358408
0.2029899 0.011940583 0.28657398 -0.011940583 0.011940583 0.011940583 0.0 0.21493049
-0.011940583 0.0 0.071643494 0.11940583 0.023881165 -0.011940583 -0.011940583 -0.107465245
0.0 0.0 0.0 0.011940583 -0.011940583 0.011940583 0.011940583 0.09552466
0.023881165 -0.023881165 -0.023881165 0.15522757 0.0 -0.023881165 -0.023881165 0.011940583
-0.011940583 -0.023881165 0.0 0.0 0.023881165 -0.023881165 0.023881165 0.0
-0.011940583 0.0 0.011940583 0.059702914 0.09552466 0.023881165 -0.023881165 0.29851457
00000000: c7ca ccca c8bd d1c7 ccd2 cdc2 c9cb cbca
00000010: cbcc caca cac9 c9ca d7d3 cec1 d6b3 babf
00000020: b9c0 aec1 ccc7 d0cc bcb4 cdcb c9d5 d0be
00000030: c8cc c9ca cbcd cacb cac9 c9c7 ccc5 d0ee
00000040: d5c9 cbb7 cfce d2cd cbc9 cac5 c9cb cbbf
00000050: c9cb cacb cccb cac8 cecd bbcb c9cc cbd2
00000060: cac7 cac9 cfc8 cfca caca cad1 caca c7d4
00000070: cac8 c9c6 cbc9 cacd c2c3 cbc7 c5c8 9ec8
00000080: c4d6 d0dc cfd1 cdb1 bfd4 bfc1 d3c0 c3cb
00000090: cbc9 c7c9 cbc7 caca cac9 cecd cec1 cecc
000000a0: cdcf ccca cdbe c5cd d2c6 cbc9 cbc6 cccb
000000b0: cacd ceca ccc8 c6c4 c9c9 cac9 cacb cbcd
000000c0: bdd0 cacb c8d0 cac9 ccc4 c5c8 c8ca cac3
000000d0: dbcb e2c9 cbcb cadc c9ca d0d4 ccc9 c9c1
000000e0: caca cacb c9cb cbd2 ccc8 c8d7 cac8 c8cb
000000f0: c9c8 caca ccc8 ccca c9ca cbcf d2cc c8e3

MobilenetV2/expanded_conv_3/depthwise/depthwise_Fold;MobilenetV2/expanded_conv_3/depthwise/weights_quant/FakeQuantWithMinMaxVars u1 [1, 3, 3, 72] scale=0.015109066 zero_point=131
-0.19641785 0.3172904 -0.045327198 -0.18130879 -0.8309986 -0.24174505 0.22663599 -0.090654396
-0.16619973 0.13598159 -0.060436264 -0.090654396 -0.8914349 0.090654396 0.19641785 0.69501704
-0.090654396 -0.075545326 0.3172904 0.12087253 -0.7101261 -0.090654396 -0.18130879 0.25685412
0.22663599 0.13598159 0.105763465 0.6194717 0.51370823 -0.24174505 -0.060436264 0.24174505
0.090654396 0.16619973 -0.090654396 0.5590354 -0.8309986 -0.13598159 -0.51370823 -0.49859917
-0.12087253 -0.51370823 0.18130879 -0.13598159 0.25685412 0.25685412 -0.060436264 -0.6345808
0.075545326 0.25685412 -0.6345808 -0.33239946 -0.42305386 -0.19641785 0.3172904 -0.22663599
-0.21152693 -0.8461077 0.15109065 -0.030218132 -0.18130879 0.0 0.015109066 0.21152693
0.105763465 0.12087253 0.21152693 0.6194717 -0.64968985 0.18130879 -0.24174505 -0.090654396
-0.22663599 0.7856714 -0.090654396 -0.22663599 -1.3900341 -0.37772664 0.40794477 -0.18130879
-0.40794477 0.24174505 -0.090654396 -0.13598159 0.54392636 0.15109065 0.3172904 -0.18130879
-0.16619973 -0.12087253 0.42305386 0.22663599 -1.0274165 -0.13598159 -0.19641785 0.3021813
0.33239946 0.21152693 0.16619973 0.7101261 0.40794477 -0.18130879 -0.075545326 0.3928357
0.15109065 0.28707224 -0.105763465 0.21152693 0.6194717 -0.21152693 -0.6647989 -0.72523516
-0.18130879 -0.3021813 0.28707224 -0.22663599 0.40794477 0.19641785 -0.075545326 0.18130879
0.24174505 0.3928357 -0.6647989 -0.5288173 0.46838105 -0.28707224 0.46838105 -0.34750852
-0.40794477 1.8735242 0.19641785 -0.045327198 -0.54392636 -0.15109065 0.21152693 0.3172904
0.18130879 0.24174505 0.37772664 0.8914349 0.105763465 0.27196318 -0.24174505 -0.16619973
-0.18130879 0.51370823 -0.090654396 -0.13598159 -0.6647989 -0.21152693 0.22663599 -0.105763465
-0.3021813 0.105763465 -0.045327198 -0.060436264 0.3928357 0.075545326 0.18130879 -0.58925354
-0.090654396 -0.075545326 0.27196318 0.13598159 -0.6194717 -0.075545326 -0.13598159 0.18130879
0.16619973 0.12087253 0.090654396 0.42305386 -0.8309986 0.015109066 -0.045327198 0.24174505
0.075545326 0.15109065 -0.090654396 -0.64968985 0.51370823 -0.12087253 -0.43816292 -0.37772664
-0.105763465 0.7554533 0.15109065 -0.15109065 0.18130879 -0.045327198 -0.045327198 0.45327199
0.16619973 0.22663599 0.25685412 -0.3172904 -0.090654396 -0.16619973 0.25685412 -0.16619973
-0.21152693 0.43816292 0.090654396 -0.030218132 -0.42305386 -0.15109065 0.22663599 0.15109065
0.090654396 0.15109065 0.22663599 0.51370823 0.5288173 0.13598159 -0.105763465 -0.090654396
-0.19641785 -1.2389435 -0.105763465 -0.25685412 0.51370823 -0.27196318 0.36261758 -0.16619973
0.58925354 0.27196318 -0.075545326 -0.15109065 0.7101261 0.12087253 0.3021813 0.95187116
-0.16619973 -0.105763465 0.33239946 0.22663599 0.19641785 -0.15109065 -0.24174505 0.3172904
0.3172904 0.19641785 0.15109065 -0.21152693 -0.679908 -0.12087253 -0.075545326 0.3928357
0.21152693 0.27196318 -0.18130879 0.90654397 -1.2389435 -0.24174505 0.060436264 0.105763465
00000000: 7698 8077 4c73 927d 788c 7f7d 4889 90b1
00000010: 7d7e 988b 547d 7794 928c 8aac a573 7f93
00000020: 898e 7da8 4c7a 6162 7b61 8f7a 9494 7f59
00000030: 8894 596d 6776 9874 754b 8d81 7783 8491
00000040: 8a8b 91ac 588f 737d 74b7 7d74 276a 9e77
00000050: 6893 7d7a a78d 9877 787b 9f92 3f7a 7697
00000060: 9991 8eb2 9e77 7e9d 8d96 7c91 ac75 5753
00000070: 776f 9674 9e90 7e8f 939d 5760 a270 a26c
00000080: 68ff 9080 5f79 9198 8f93 9cbe 8a95 7378
00000090: 77a5 7d7a 5775 927c 6f8a 807f 9d88 8f5c
000000a0: 7d7e 958c 5a7e 7a8f 8e8b 899f 4c84 8093
000000b0: 888d 7d58 a57b 666a 7cb5 8d79 8f80 80a1
000000c0: 8e92 946e 7d78 9478 75a0 8981 6779 928d
000000d0: 898d 92a5 a68c 7c7d 7631 7c72 a571 9b78
000000e0: aa95 7e79 b28b 97c2 787c 9992 9079 7398
000000f0: 9890 8d75 567b 7e9d 9195 77bf 3173 878a

MobilenetV2/expanded_conv_3/project/Conv2D_Fold;MobilenetV2/expanded_conv_3/project/weights_quant/FakeQuantWithMinMaxVars u1 [16, 1, 1, 72] scale=0.023852611 zero_point=128
0.5724627 -0.78713614 0.50090486 0.28623134 -0.54861003 0.4531996 -0.4054944 0.4054944
0.0 0.54861003 -0.095410444 0.76328355 -0.38164178 0.52475744 1.2641884 -0.14311567
0.6440205 -0.33393654 -0.33393654 -0.6440205 -0.5724627 0.11926305 0.2146735 0.5724627
-1.0256623 1.0018097 -0.69172573 -0.11926305 -0.97795707 -1.6219776 1.4311566 -0.28623134
0.071557835 0.071557835 0.4054944 -0.047705222 -0.2146735 0.38164178 0.14311567 -0.9541044
0.2146735 -1.288041 -1.3357462 0.0 -0.78713614 -1.288041 0.14311567 -0.023852611
-0.8348414 -0.6440205 -0.19082089 -1.3118936 -0.8348414 1.0972201 -0.023852611 0.28623134
-0.023852611 -0.78713614 -0.429347 0.047705222 0.8348414 0.35778916 -0.9541044 -0.047705222
-1.6696827 -0.35778916 1.2164831 -0.2385261 -1.2641884 0.59631526 -1.1210728 1.3595989
0.11926305 -0.5724627 0.16696827 0.7155783 -0.4770522 -0.14311567 -1.407304 -0.54861003
0.19082089 0.5724627 0.023852611 1.0972201 -0.38164178 1.0733675 0.14311567 -0.023852611
0.5724627 -2.2659981 0.28623134 1.4550092 0.095410444 -0.19082089 -0.59631526 0.16696827
0.5724627 -0.38164178 1.1926305 -0.095410444 -0.4531996 0.14311567 -0.095410444 -0.8348414
-1.3834515 -1.3834515 -0.38164178 0.2146735 0.16696827 -0.2385261 -0.4054944 -0.54861003
1.1210728 0.0 -1.1210728 -0.4054944 0.26237872 -0.4054944 -1.0256623 -0.047705222
-0.16696827 0.73943096 -0.4531996 -0.4054944 0.33393654 0.26237872 -0.047705222 -0.31008396
0.28623134 -0.38164178 0.047705222 0.35778916 -0.2146735 0.0 -0.429347 -0.4531996
1.3357462 0.2146735 -0.97795707 -0.38164178 -0.2146735 -0.047705222 -0.071557835 -0.69172573
0.4054944 0.8348414 -0.50090486 0.2146735 0.047705222 0.6201679 0.38164178 -0.11926305
-0.6440205 -0.14311567 0.19082089 1.0495149 -0.5724627 0.97795707 -0.858694 0.28623134
1.3357462 -0.7155783 -1.0018097 0.2146735 -1.2403358 -1.2403358 0.11926305 -1.3834515
0.023852611 1.0972201 0.0 -1.0495149 -0.31008396 1.4311566 0.33393654 -2.1228824
0.023852611 2.1705875 -0.26237872 -1.2641884 -0.93025184 0.0 0.52475744 0.8109888
-0.6201679 -0.047705222 -1.2641884 0.52475744 -0.93025184 0.50090486 -0.50090486 -0.429347
1.1210728 -1.717388 -0.4770522 0.52475744 0.429347 -0.28623134 0.69172573 0.78713614
0.31008396 -0.2146735 0.19082089 -0.8109888 -1.0256623 1.0733675 0.31008396 0.38164178
0.7155783 -0.31008396 0.54861003 -0.11926305 0.69172573 1.3357462 1.1449254 0.97795707
0.023852611 0.73943096 0.19082089 -0.023852611 0.047705222 -0.35778916 -0.6440205 -0.26237872
-0.071557835 0.095410444 -0.33393654 -1.2403358 0.6440205 -0.33393654 -0.28623134 -0.8109888
-0.095410444 -0.4531996 -0.35778916 0.69172573 -0.071557835 0.59631526 -0.2385261 -0.50090486
-0.2385261 0.6678731 0.50090486 -0.19082089 0.0 -1.2641884 0.2385261 0.8825466
-0.023852611 1.5742723 -0.38164178 -0.50090486 -0.78713614 -0.095410444 -0.11926305 0.78713614
00000000: 985f 958c 6993 6f91 8097 7ca0 7096 b57a
00000010: 9b72 7265 6885 8998 55aa 637b 573c bc74
00000020: 8383 917e 7790 8658 894a 4880 5f4a 867f
00000030: 5d65 7849 5dae 7f8c 7f5f 6e82 a38f 587e
00000040: 3a71 b376 4b99 51b9 8568 879e 6c7a 4569
00000050: 8898 81ae 70ad 867f 9821 8cbd 8478 6787
00000060: 9870 b27c 6d86 7c5d 4646 7089 8776 6f69
00000070: af80 516f 8b6f 557e 799f 6d6f 8e8b 7e73
00000080: 8c70 828f 7780 6e6d b889 5770 777e 7d63
00000090: 91a3 6b89 829a 907b 657a 88ac 68a9 5c8c
000000a0: b862 5689 4c4c 8546 81ae 8054 73bc 8e27
000000b0: 81db 754b 5980 96a2 667e 4b96 5995 6b6e
000000c0: af38 6c96 9274 9da1 8d77 885e 55ad 8d90
000000d0: 9e73 977b 9db8 b0a9 819f 887f 8271 6575
000000e0: 7d84 724c 9b72 745e 7c6d 719d 7d99 766b
000000f0: 769c 9578 804b 8aa5 7fc2 706b 5f7c 7ba1

MobilenetV2/expanded_conv_4/expand/Conv2D_Fold;MobilenetV2/expanded_conv_4/expand/weights_quant/FakeQuantWithMinMaxVars u1 [96, 1, 1, 16] scale=0.0015437736 zero_point=132
-0.010806415 0.0077188676 0.02624415 0.010806415 0.040138114 0.0077188676 -0.0030875471 -0.037050568
0.012350189 0.0524883 -0.018525284 -0.023156604 0.1466585 0.08336377 0.010806415 0.032419246
0.044769432 -0.015437735 0.010806415 0.07255736 0.03087547 0.020069057 -0.013893962 0.040138114
0.015437735 -0.02161283 -0.023156604 -0.027787924 0.0077188676 0.009262642 0.029331697 -0.03859434
0.057119623 0.1049766 -0.04322566 -0.06638227 -0.02624415 0.049400754 -0.020069057 -0.10652038
0.06946981 0.04785698 0.03087547 0.11269547 -0.0030875471 -0.040138114 0.024700377 0.032419246
0.04785698 -0.046313208 -0.012350189 -0.02624415 -0.10343283 0.016981509 0.02624415 -0.063294716
-0.010806415 -0.02161283 0.058663394 0.020069057 -0.09725773 0.018525284 -0.07255736 -0.049400754
0.0030875471 0.037050568 0.0015437736 0.02624415 0.06175094 -0.0030875471 0.009262642 -0.02161283
0.018525284 0.010806415 -0.009262642 -0.0030875471 0.03087547 -0.0077188676 0.004631321 0.02161283
-0.067926034 -0.02161283 0.029331697 0.032419246 -0.032419246 0.0030875471 0.081819996 -0.015437735
0.074101135 -0.009262642 -0.016981509 0.044769432 -0.032419246 0.0061750943 0.010806415 -0.063294716
-0.0077188676 0.11269547 -0.06175094 0.010806415 -0.049400754 0.020069057 -0.0015437736 0.06483849
-0.035506792 -0.063294716 -0.035506792 0.06020717 0.010806415 -0.03087547 -0.03087547 -0.013893962
-0.0015437736 -0.010806415 -0.02161283 0.0 -0.023156604 0.0030875471 0.009262642 -0.018525284
0.009262642 -0.009262642 0.018525284 0.0 0.06175094 0.06483849 0.0015437736 -0.024700377
0.0077188676 0.029331697 0.016981509 0.015437735 -0.032419246 -0.015437735 -0.054032076 0.004631321
-0.015437735 0.0077188676 0.0 0.0077188676 -0.0015437736 0.010806415 -0.02161283 0.0077188676
0.0030875471 -0.09880151 -0.041681886 -0.04785698 0.04322566 0.035506792 0.08490755 -0.09571396
-0.010806415 0.0015437736 0.02624415 -0.004631321 -0.0015437736 -0.05094453 0.05094453 -0.0030875471
0.016981509 -0.0524883 0.004631321 0.0077188676 0.0524883 0.015437735 0.044769432 -0.14202717
-0.11269547 0.013893962 0.009262642 -0.027787924 -0.032419246 -0.04322566 0.004631321 -0.016981509
-0.004631321 0.0015437736 -0.0061750943 0.0015437736 0.0 -0.0061750943 -0.009262642 -0.044769432
-0.018525284 0.0077188676 -0.023156604 0.016981509 -0.033963017 0.015437735 -0.024700377 -0.0077188676
-0.020069057 0.004631321 -0.0061750943 0.015437735 -0.023156604 0.0 0.0524883 -0.029331697
-0.029331697 -0.010806415 -0.015437735 -0.0015437736 -0.02161283 -0.049400754 0.0015437736 -0.029331697
0.08336377 -0.0524883 -0.004631321 -0.092626415 0.032419246 -0.02161283 -0.07718868 -0.04322566
0.18216528 0.012350189 -0.02161283 0.10343283 -0.013893962 -0.018525284 0.067926034 -0.058663394
-0.009262642 0.0077188676 0.0077188676 -0.0030875471 0.004631321 0.004631321 0.023156604 -0.057119623
0.012350189 0.012350189 -0.0015437736 -0.029331697 0.18525283 0.08027623 0.012350189 -0.0061750943
0.023156604 -0.0077188676 -0.041681886 0.13739584 -0.0030875471 0.1867966 -0.03087547 -0.02624415
-0.004631321 -0.027787924 -0.06483849 0.004631321 -0.015437735 0.0030875471 -0.010806415 -0.046313208
00000000: 7d89 958b 9e89 826c 8ca6 7875 e3ba 8b99
00000010: a17a 8bb3 9891 7b9e 8e76 7572 898a 976b
00000020: a9c8 6859 73a4 773f b1a3 98cd 826a 9499
00000030: a366 7c73 418f 955b 7d76 aa91 4590 5564
00000040: 869c 8595 ac82 8a76 908b 7e82 987f 8792
00000050: 5876 9799 6f86 b97a b47e 79a1 6f88 8b5b
00000060: 7fcd 5c8b 6491 83ae 6d5b 6dab 8b70 707b
00000070: 837d 7684 7586 8a78 8a7e 9084 acae 8574
00000080: 8997 8f8e 6f7a 6187 7a89 8489 838b 7689
00000090: 8644 6965 a09b bb46 7d85 9581 8363 a582
000000a0: 8f62 8789 a68e a128 3b8d 8a72 6f68 8779
000000b0: 8185 8085 8480 7e67 7889 758f 6e8e 747f
000000c0: 7787 808e 7584 a671 717d 7a83 7664 8571
000000d0: ba62 8148 9976 5268 fa8c 76c7 7b78 b05e
000000e0: 7e89 8982 8787 935f 8c8c 8371 fcb8 8c80
000000f0: 937f 69dd 82fd 7073 8172 5a87 7a86 7d66

MobilenetV2/expanded_conv_4/depthwise/depthwise_Fold;MobilenetV2/expanded_conv_4/depthwise/weights_quant/FakeQuantWithMinMaxVars u1 [1, 3, 3, 96] scale=0.08104534 zero_point=105
-0.24313602 -0.16209067 -0.24313602 -0.24313602 -0.08104534 -0.16209067 0.16209067 0.56731737
0.32418135 0.16209067 0.0 -0.56731737 0.6483627 -0.16209067 -0.24313602 0.24313602
-0.24313602 0.24313602 1.21568 -0.24313602 0.08104534 0.16209067 0.16209067 -0.08104534
-0.24313602 -0.81045336 -0.16209067 -0.40522668 0.48627204 -0.32418135 -0.16209067 0.0
-0.81045336 -0.08104534 -0.16209067 0.32418135 -0.08104534 -1.1346347 0.48627204 0.48627204
0.24313602 0.81045336 0.16209067 0.32418135 0.08104534 -0.56731737 0.48627204 -0.32418135
0.32418135 0.24313602 -1.3777708 0.0 -0.08104534 -0.16209067 -0.24313602 0.8914987
1.2967254 0.24313602 0.0 -0.24313602 -0.16209067 -0.32418135 -0.08104534 0.0
0.16209067 0.16209067 0.8914987 0.56731737 0.08104534 -0.24313602 0.08104534 0.0
-0.48627204 0.0 -1.458816 0.24313602 0.0 -0.08104534 0.56731737 -0.32418135
-0.16209067 -0.16209067 0.0 -0.24313602 -0.08104534 0.9725441 -1.0535893 0.08104534
0.08104534 -0.16209067 0.0 0.0 -0.48627204 0.6483627 -0.24313602 0.16209067
-0.08104534 -0.729408 -0.08104534 0.6483627 -1.5398614 -0.24313602 1.1346347 2.0261335
2.3503149 -0.32418135 0.40522668 0.16209067 -0.8914987 0.24313602 -0.729408 -0.48627204
-0.8914987 0.08104534 -0.48627204 -0.729408 -0.32418135 1.3777708 -0.48627204 0.0
-0.729408 -0.8914987 0.24313602 -0.729408 -0.08104534 -0.08104534 0.40522668 0.6483627
1.6209067 0.16209067 0.24313602 -0.24313602 -0.32418135 0.16209067 -0.08104534 0.40522668
0.08104534 -0.08104534 -0.40522668 -0.8914987 0.16209067 0.48627204 -0.32418135 -0.56731737
0.0 -0.16209067 0.08104534 0.40522668 -0.6483627 1.1346347 0.16209067 2.1071787
0.08104534 0.16209067 -0.08104534 0.08104534 0.0 -0.08104534 -0.56731737 0.9725441
-1.0535893 0.24313602 0.9725441 0.0 0.16209067 -0.40522668 0.16209067 0.32418135
-0.6483627 0.32418135 4.052267 1.21568 -0.48627204 -0.16209067 -0.729408 -1.0535893
-0.16209067 -0.48627204 0.48627204 -0.9725441 -1.0535893 1.0535893 2.3503149 0.8914987
0.6483627 0.48627204 1.0535893 0.16209067 -0.48627204 0.6483627 -0.729408 -0.729408
0.24313602 -1.1346347 -0.24313602 -0.08104534 1.458816 -0.16209067 0.24313602 0.56731737
0.16209067 0.16209067 0.0 -0.56731737 0.08104534 -0.08104534 -0.16209067 -0.16209067
-0.08104534 0.40522668 -1.2967254 0.0 0.16209067 0.08104534 0.16209067 -0.08104534
0.0 -0.08104534 -0.24313602 -0.24313602 -0.32418135 -0.32418135 -0.08104534 -0.08104534
0.0 0.0 0.16209067 -0.16209067 0.0 0.6483627 -0.24313602 -0.48627204
0.32418135 -1.2967254 -0.08104534 0.32418135 0.08104534 0.40522668 -0.24313602 0.56731737
0.48627204 0.16209067 0.48627204 0.0 -1.0535893 0.08104534 0.16209067 0.729408
-1.1346347 -0.56731737 0.32418135 0.32418135 -0.08104534 -0.24313602 0.24313602 0.16209067
00000000: 6667 6666 6867 6b70 6d6b 6962 7167 666c
00000010: 666c 7866 6a6b 6b68 665f 6764 6f65 6769
00000020: 5f68 676d 685b 6f6f 6c73 6b6d 6a62 6f65
00000030: 6d6c 5869 6867 6674 796c 6966 6765 6869
00000040: 6b6b 7470 6a66 6a69 6369 576c 6968 7065
00000050: 6767 6966 6875 5c6a 6a67 6969 6371 666b
00000060: 6860 6871 5666 7782 8665 6e6b 5e6c 6063
00000070: 5e6a 6360 657a 6369 605e 6c60 6868 6e71
00000080: 7d6b 6c66 656b 686e 6a68 645e 6b6f 6562
00000090: 6967 6a6e 6177 6b83 6a6b 686a 6968 6275
000000a0: 5c6c 7569 6b64 6b6d 616d 9b78 6367 605c
000000b0: 6763 6f5d 5c76 8674 716f 766b 6371 6060
000000c0: 6c5b 6668 7b67 6c70 6b6b 6962 6a68 6767
000000d0: 686e 5969 6b6a 6b68 6968 6666 6565 6868
000000e0: 6969 6b67 6971 6663 6d59 686d 6a6e 6670
000000f0: 6f6b 6f69 5c6a 6b72 5b62 6d6d 6866 6c6b
