keras_lstm_mnist_ptq.tflite (tflite, 13928 bytes, 9 tensors)

sequential/output/MatMul i1 [10, 560] scale=0.0059469705 zero_point=0
0	0xed	-0.11299244
1	0x0f	0.08920456
2	0xf9	-0.041628793
3	0xf1	-0.08920456
4	0x1c	0.16651517
5	0x13	0.11299244
6	0xe6	-0.15462123
7	0x09	0.053522736
8	0x09	0.053522736
9	0x15	0.12488638
10	0xf5	-0.06541668
11	0x0c	0.07136364
12	0xe7	-0.14867426
13	0x09	0.053522736
14	0xde	-0.202197
15	0x0d	0.077310614
16	0xec	-0.118939415
17	0x1f	0.1843561
18	0x11	0.1010985
19	0xf2	-0.083257586
20	0xf7	-0.053522736
21	0x0a	0.059469707
22	0x05	0.029734854
23	0xd1	-0.2795076
24	0x22	0.202197
25	0x0c	0.07136364
26	0xfa	-0.03568182
27	0x10	0.09515153
28	0x31	0.29140157
29	0x0a	0.059469707
30	0xe9	-0.13678032
31	0x35	0.31518945
32	0xd8	-0.23787883
33	0x12	0.10704547
34	0xef	-0.1010985
35	0x0a	0.059469707
36	0xe4	-0.16651517
37	0x1d	0.17246215
38	0x1a	0.15462123
39	0xf7	-0.053522736
40	0xff	-0.0059469705
41	0xe3	-0.17246215
42	0xd0	-0.28545457
43	0x1b	0.16056821
44	0x0a	0.059469707
45	0x0d	0.077310614
46	0xda	-0.22598489
47	0xfb	-0.029734854
48	0x06	0.03568182
49	0x00	0.0
50	0xfe	-0.011893941
51	0x01	0.0059469705
52	0x21	0.19625002
53	0x05	0.029734854
54	0xf4	-0.07136364
55	0x1f	0.1843561
56	0xff	-0.0059469705
57	0x0f	0.08920456
58	0xde	-0.202197
59	0xf3	-0.077310614
60	0x0b	0.06541668
61	0xb5	-0.44602278
62	0xb7	-0.43412885
63	0x26	0.22598489
64	0x00	0.0
65	0xee	-0.10704547
66	0xd9	-0.23193185
67	0xe3	-0.17246215
68	0xd5	-0.25571972
69	0xe8	-0.14272729
70	0x33	0.3032955
71	0xf8	-0.047575764
72	0x1a	0.15462123
73	0xf5	-0.06541668
74	0x40	0.3806061
75	0x24	0.21409094
76	0xfe	-0.011893941
77	0xfa	-0.03568182
78	0xf0	-0.09515153
79	0xfb	-0.029734854
80	0x05	0.029734854
81	0xd9	-0.23193185
82	0xec	-0.118939415
83	0x10	0.09515153
84	0xd7	-0.2438258
85	0xe7	-0.14867426
86	0xf9	-0.041628793
87	0xe5	-0.16056821
88	0xed	-0.11299244
89	0xfc	-0.023787882
90	0x1a	0.15462123
91	0xe6	-0.15462123
92	0x08	0.047575764
93	0x10	0.09515153
94	0x26	0.22598489
95	0x0d	0.077310614
96	0x00	0.0
97	0x0b	0.06541668
98	0xf4	-0.07136364
99	0xf3	-0.077310614
100	0xfd	-0.01784091
101	0xf7	-0.053522736
102	0x0a	0.059469707
103	0x0d	0.077310614
104	0xd2	-0.27356064
105	0xfe	-0.011893941
106	0xf6	-0.059469707
107	0x0a	0.059469707
108	0x01	0.0059469705
109	0xfb	-0.029734854
110	0x0f	0.08920456
111	0xf6	-0.059469707
112	0x17	0.13678032
113	0xfc	-0.023787882
114	0x15	0.12488638
115	0x05	0.029734854
116	0x02	0.011893941
117	0x16	0.13083336
118	0x00	0.0
119	0xe9	-0.13678032
120	0x06	0.03568182
121	0x01	0.0059469705
122	0x17	0.13678032
123	0xec	-0.118939415
124	0xcc	-0.30924246
125	0xe3	-0.17246215
126	0xf7	-0.053522736
127	0x0e	0.083257586
128	0xea	-0.13083336
129	0xef	-0.1010985
130	0x02	0.011893941
131	0xf9	-0.041628793
132	0x07	0.041628793
133	0x03	0.01784091
134	0xfb	-0.029734854
135	0xff	-0.0059469705
136	0x0f	0.08920456
137	0x15	0.12488638
138	0x0d	0.077310614
139	0xfd	-0.01784091
140	0xfe	-0.011893941
141	0x0e	0.083257586
142	0xff	-0.0059469705
143	0xf4	-0.07136364
144	0xea	-0.13083336
145	0xd8	-0.23787883
146	0x11	0.1010985
147	0xf4	-0.07136364
148	0xff	-0.0059469705
149	0xfc	-0.023787882
150	0x05	0.029734854
151	0xf3	-0.077310614
152	0xef	-0.1010985
153	0xf3	-0.077310614
154	0xfa	-0.03568182
155	0xf1	-0.08920456
156	0x14	0.118939415
157	0x16	0.13083336
158	0xfc	-0.023787882
159	0x07	0.041628793
160	0xd0	-0.28545457
161	0x1a	0.15462123
162	0x0b	0.06541668
163	0xdb	-0.2200379
164	0xec	-0.118939415
165	0x00	0.0
166	0x14	0.118939415
167	0x00	0.0
168	0x03	0.01784091
169	0x03	0.01784091
170	0xe0	-0.19030306
171	0x06	0.03568182
172	0xf1	-0.08920456
173	0x07	0.041628793
174	0xf0	-0.09515153
175	0xe3	-0.17246215
176	0xf6	-0.059469707
177	0x21	0.19625002
178	0x19	0.14867426
179	0xe6	-0.15462123
180	0xd7	-0.2438258
181	0x1a	0.15462123
182	0x05	0.029734854
183	0xdd	-0.20814396
184	0xee	-0.10704547
185	0x06	0.03568182
186	0x23	0.20814396
187	0xf6	-0.059469707
188	0x08	0.047575764
189	0x0e	0.083257586
190	0xea	-0.13083336
191	0xf9	-0.041628793
192	0x04	0.023787882
193	0x08	0.047575764
194	0xfc	-0.023787882
195	0xd7	-0.2438258
196	0xea	-0.13083336
197	0x0a	0.059469707
198	0x1f	0.1843561
199	0xe3	-0.17246215
200	0xe0	-0.19030306
201	0x22	0.202197
202	0x0f	0.08920456
203	0x02	0.011893941
204	0x03	0.01784091
205	0x29	0.2438258
206	0x31	0.29140157
207	0x01	0.0059469705
208	0xfa	-0.03568182
209	0x08	0.047575764
210	0xfa	-0.03568182
211	0x17	0.13678032
212	0xf5	-0.06541668
213	0x19	0.14867426
214	0x01	0.0059469705
215	0xdf	-0.19625002
216	0xe9	-0.13678032
217	0x0a	0.059469707
218	0xfb	-0.029734854
219	0x02	0.011893941
220	0xfa	-0.03568182
221	0x31	0.29140157
222	0x1a	0.15462123
223	0x13	0.11299244
224	0x06	0.03568182
225	0x08	0.047575764
226	0x28	0.23787883
227	0x18	0.14272729
228	0x08	0.047575764
229	0xfa	-0.03568182
230	0x06	0.03568182
231	0x1a	0.15462123
232	0xfa	-0.03568182
233	0x06	0.03568182
234	0x08	0.047575764
235	0x00	0.0
236	0xef	-0.1010985
237	0xec	-0.118939415
238	0x02	0.011893941
239	0xfa	-0.03568182
240	0xeb	-0.12488638
241	0x09	0.053522736
242	0x23	0.20814396
243	0xfd	-0.01784091
244	0x0f	0.08920456
245	0x0f	0.08920456
246	0x2d	0.26761368
247	0x08	0.047575764
248	0xf3	-0.077310614
249	0x14	0.118939415
250	0xff	-0.0059469705
251	0x05	0.029734854
252	0x03	0.01784091
253	0xf4	-0.07136364
254	0x02	0.011893941
255	0x05	0.029734854

std.constant8 i1 [20, 28] scale=0.006644778 zero_point=0
0	0x0c	0.079737335
1	0xfa	-0.039868668
2	0x04	0.026579112
3	0xc9	-0.36546278
4	0x9b	-0.67112255
5	0xd1	-0.31230456
6	0xff	-0.006644778
7	0x04	0.026579112
8	0xdb	-0.24585679
9	0xfc	-0.026579112
10	0xce	-0.3322389
11	0xfe	-0.013289556
12	0x11	0.112961225
13	0x05	0.03322389
14	0x2a	0.2790807
15	0x54	0.5581614
16	0x3a	0.38539714
17	0x4f	0.52493745
18	0x2d	0.29901502
19	0x2d	0.29901502
20	0xe4	-0.18605378
21	0xfe	-0.013289556
22	0xff	-0.006644778
23	0xea	-0.14618511
24	0xfe	-0.013289556
25	0x19	0.16611946
26	0xfa	-0.039868668
27	0xf6	-0.06644778
28	0x0b	0.07309256
29	0x2c	0.29237023
30	0x22	0.22592245
31	0xfa	-0.039868668
32	0x13	0.12625077
33	0xf9	-0.046513446
34	0xc5	-0.3920419
35	0xee	-0.119606
36	0x04	0.026579112
37	0xf5	-0.07309256
38	0x04	0.026579112
39	0xcd	-0.33888367
40	0xf3	-0.08638211
41	0xec	-0.13289556
42	0xd0	-0.31894934
43	0xd1	-0.31230456
44	0xd2	-0.30565977
45	0xbb	-0.4584897
46	0xda	-0.25250155
47	0xe2	-0.19934334
48	0xd6	-0.2790807
49	0xce	-0.3322389
50	0xb7	-0.4850688
51	0x9c	-0.6644778
52	0x81	-0.8438868
53	0xa9	-0.5780957
54	0xea	-0.14618511
55	0x1a	0.17276423
56	0x03	0.019934334
57	0x21	0.21927768
58	0x26	0.25250155
59	0x33	0.33888367
60	0x33	0.33888367
61	0x2d	0.29901502
62	0x20	0.2126329
63	0x2d	0.29901502
64	0x3d	0.40533146
65	0x36	0.358818
66	0x09	0.059803
67	0x15	0.13954034
68	0x28	0.26579112
69	0xf3	-0.08638211
70	0xd4	-0.29237023
71	0x0a	0.06644778
72	0x15	0.13954034
73	0xeb	-0.13954034
74	0x14	0.13289556
75	0xdb	-0.24585679
76	0xfc	-0.026579112
77	0xcc	-0.34552845
78	0xca	-0.358818
79	0xa9	-0.5780957
80	0xc8	-0.37210757
81	0x23	0.23256722
82	0x08	0.053158224
83	0x18	0.15947467
84	0x14	0.13289556
85	0xfd	-0.019934334
86	0x11	0.112961225
87	0xea	-0.14618511
88	0x47	0.47177923
89	0x19	0.16611946
90	0x19	0.16611946
91	0x18	0.15947467
92	0x1c	0.18605378
93	0x08	0.053158224
94	0x62	0.65118825
95	0x22	0.22592245
96	0x18	0.15947467
97	0x2e	0.30565977
98	0x4f	0.52493745
99	0x3a	0.38539714
100	0xf3	-0.08638211
101	0xfa	-0.039868668
102	0xf6	-0.06644778
103	0xe2	-0.19934334
104	0xed	-0.12625077
105	0xd9	-0.25914633
106	0xf9	-0.046513446
107	0x20	0.2126329
108	0x4c	0.5050031
109	0x3a	0.38539714
110	0x14	0.13289556
111	0x40	0.4252658
112	0x3a	0.38539714
113	0xf7	-0.059803
114	0x2b	0.28572544
115	0x48	0.478424
116	0xee	-0.119606
117	0xc5	-0.3920419
118	0xe9	-0.15282989
119	0xbe	-0.43855536
120	0xc5	-0.3920419
121	0xd3	-0.29901502
122	0xbd	-0.44520012
123	0xe8	-0.15947467
124	0x14	0.13289556
125	0x5e	0.6246091
126	0x30	0.31894934
127	0x08	0.053158224
128	0x18	0.15947467
129	0x08	0.053158224
130	0x16	0.14618511
131	0x13	0.12625077
132	0x3c	0.39868668
133	0x3b	0.3920419
134	0x6a	0.7043465
135	0x39	0.37875235
136	0x25	0.24585679
137	0x05	0.03322389
138	0x06	0.039868668
139	0xf5	-0.07309256
140	0xea	-0.14618511
141	0x2a	0.2790807
142	0x26	0.25250155
143	0xdf	-0.21927768
144	0x24	0.239212
145	0x16	0.14618511
146	0x20	0.2126329
147	0x55	0.5648061
148	0x10	0.10631645
149	0x22	0.22592245
150	0x0c	0.079737335
151	0x28	0.26579112
152	0x24	0.239212
153	0x0a	0.06644778
154	0xe4	-0.18605378
155	0xbc	-0.4518449
156	0xef	-0.112961225
157	0x2e	0.30565977
158	0x37	0.36546278
159	0x28	0.26579112
160	0x42	0.43855536
161	0x51	0.538227
162	0x3b	0.3920419
163	0x06	0.039868668
164	0xe0	-0.2126329
165	0xe8	-0.15947467
166	0x03	0.019934334
167	0xf5	-0.07309256
168	0xd8	-0.26579112
169	0x01	0.006644778
170	0xfa	-0.039868668
171	0xb1	-0.52493745
172	0x92	-0.73092556
173	0x84	-0.82395244
174	0x8e	-0.7575047
175	0xc8	-0.37210757
176	0xbd	-0.44520012
177	0xaa	-0.5714509
178	0xce	-0.3322389
179	0xb3	-0.5116479
180	0xa2	-0.6246091
181	0x97	-0.6977017
182	0xe7	-0.16611946
183	0x37	0.36546278
184	0x03	0.019934334
185	0x13	0.12625077
186	0xe0	-0.2126329
187	0xf2	-0.09302689
188	0xfb	-0.03322389
189	0x11	0.112961225
190	0x2c	0.29237023
191	0x28	0.26579112
192	0x26	0.25250155
193	0x2a	0.2790807
194	0xdf	-0.21927768
195	0xd8	-0.26579112
196	0x21	0.21927768
197	0xf6	-0.06644778
198	0xeb	-0.13954034
199	0xc4	-0.39868668
200	0x9c	-0.6644778
201	0xb4	-0.5050031
202	0xd6	-0.2790807
203	0xd0	-0.31894934
204	0xed	-0.12625077
205	0xf5	-0.07309256
206	0xff	-0.006644778
207	0x31	0.32559413
208	0x10	0.10631645
209	0x1e	0.19934334
210	0x14	0.13289556
211	0xe7	-0.16611946
212	0xe4	-0.18605378
213	0xfa	-0.039868668
214	0xf4	-0.079737335
215	0x1a	0.17276423
216	0x24	0.239212
217	0x33	0.33888367
218	0x4c	0.5050031
219	0x30	0.31894934
220	0x24	0.239212
221	0x2e	0.30565977
222	0x39	0.37875235
223	0xec	-0.13289556
224	0x1e	0.19934334
225	0x0e	0.09302689
226	0xfe	-0.013289556
227	0xca	-0.358818
228	0xba	-0.46513444
229	0xcf	-0.32559413
230	0xfc	-0.026579112
231	0xe2	-0.19934334
232	0x10	0.10631645
233	0xe2	-0.19934334
234	0xdf	-0.21927768
235	0xe1	-0.20598811
236	0xf9	-0.046513446
237	0xe1	-0.20598811
238	0xfe	-0.013289556
239	0xf4	-0.079737335
240	0x0a	0.06644778
241	0x14	0.13289556
242	0x05	0.03322389
243	0xe4	-0.18605378
244	0xf1	-0.09967167
245	0x30	0.31894934
246	0x33	0.33888367
247	0x07	0.046513446
248	0x2b	0.28572544
249	0x0a	0.06644778
250	0xfd	-0.019934334
251	0xc7	-0.37875235
252	0xec	-0.13289556
253	0x2c	0.29237023
254	0x58	0.58474046
255	0x2f	0.31230456

std.constant9 i1 [20, 28] scale=0.0066985176 zero_point=0
0	0x0f	0.10047776
1	0x12	0.12057332
2	0xb2	-0.52248436
3	0xc3	-0.40860957
4	0xe4	-0.18755849
5	0xfd	-0.020095553
6	0x01	0.0066985176
7	0xed	-0.12727183
8	0x0a	0.066985175
9	0xef	-0.1138748
10	0x1a	0.17416146
11	0x39	0.3818155
12	0x4e	0.52248436
13	0x05	0.033492588
14	0xf3	-0.08708073
15	0xda	-0.25454366
16	0xdd	-0.23444812
17	0x03	0.020095553
18	0xe2	-0.20095553
19	0xdd	-0.23444812
20	0xf0	-0.10717628
21	0xe7	-0.16746294
22	0x0e	0.09377924
23	0x01	0.0066985176
24	0xf0	-0.10717628
25	0x19	0.16746294
26	0xf5	-0.073683694
27	0xdf	-0.22105108
28	0xec	-0.13397035
29	0x0a	0.066985175
30	0xf3	-0.08708073
31	0xcb	-0.35502145
32	0xc9	-0.36841846
33	0xef	-0.1138748
34	0xf7	-0.06028666
35	0xfa	-0.040191106
36	0x14	0.13397035
37	0xee	-0.12057332
38	0xea	-0.14736739
39	0xe5	-0.18085997
40	0xf5	-0.073683694
41	0xfd	-0.020095553
42	0xed	-0.12727183
43	0x1d	0.194257
44	0x4a	0.49569032
45	0x13	0.12727183
46	0x1d	0.194257
47	0x11	0.1138748
48	0x33	0.3416244
49	0xfa	-0.040191106
50	0x3a	0.388514
51	0x16	0.14736739
52	0xf0	-0.10717628
53	0xc9	-0.36841846
54	0x0c	0.08038221
55	0x00	0.0
56	0xe8	-0.16076443
57	0xf1	-0.10047776
58	0x39	0.3818155
59	0x41	0.43540365
60	0xfb	-0.033492588
61	0xf8	-0.05358814
62	0xf3	-0.08708073
63	0x00	0.0
64	0xdd	-0.23444812
65	0xf8	-0.05358814
66	0xe2	-0.20095553
67	0x03	0.020095553
68	0x16	0.14736739
69	0xe8	-0.16076443
70	0x08	0.05358814
71	0x17	0.1540659
72	0xed	-0.12727183
73	0x0e	0.09377924
74	0x13	0.12727183
75	0xf9	-0.04688962
76	0xf3	-0.08708073
77	0x01	0.0066985176
78	0x11	0.1138748
79	0xde	-0.2277496
80	0xab	-0.569374
81	0xad	-0.555977
82	0xce	-0.3349259
83	0x3a	0.388514
84	0x1b	0.18085997
85	0xe8	-0.16076443
86	0xf5	-0.073683694
87	0xa7	-0.59616804
88	0xe5	-0.18085997
89	0xec	-0.13397035
90	0x12	0.12057332
91	0x19	0.16746294
92	0xe1	-0.20765404
93	0xd2	-0.3081318
94	0x11	0.1138748
95	0x07	0.04688962
96	0x17	0.1540659
97	0x2b	0.28803626
98	0x05	0.033492588
99	0xe4	-0.18755849
100	0x08	0.05358814
101	0xf1	-0.10047776
102	0x0d	0.08708073
103	0x11	0.1138748
104	0x19	0.16746294
105	0x0e	0.09377924
106	0x16	0.14736739
107	0x21	0.22105108
108	0x34	0.34832293
109	0x2d	0.3014333
110	0x4d	0.5157859
111	0x07	0.04688962
112	0xec	-0.13397035
113	0x08	0.05358814
114	0x41	0.43540365
115	0x4e	0.52248436
116	0x2e	0.3081318
117	0x55	0.569374
118	0x58	0.58946955
119	0x37	0.36841846
120	0x34	0.34832293
121	0x01	0.0066985176
122	0xbd	-0.44880068
123	0xae	-0.54927844
124	0xba	-0.46889624
125	0xf5	-0.073683694
126	0xf3	-0.08708073
127	0x06	0.040191106
128	0x27	0.26124218
129	0x07	0.04688962
130	0x08	0.05358814
131	0xed	-0.12727183
132	0xe4	-0.18755849
133	0xfd	-0.020095553
134	0xf3	-0.08708073
135	0xff	-0.0066985176
136	0x16	0.14736739
137	0x00	0.0
138	0x14	0.13397035
139	0xe3	-0.194257
140	0x08	0.05358814
141	0x0c	0.08038221
142	0x13	0.12727183
143	0x06	0.040191106
144	0xff	-0.0066985176
145	0xf4	-0.08038221
146	0xf5	-0.073683694
147	0x27	0.26124218
148	0x0d	0.08708073
149	0xff	-0.0066985176
150	0xd5	-0.28803626
151	0xe2	-0.20095553
152	0x03	0.020095553
153	0xf6	-0.066985175
154	0xf4	-0.08038221
155	0xfd	-0.020095553
156	0xfe	-0.013397035
157	0x0e	0.09377924
158	0x04	0.02679407
159	0x06	0.040191106
160	0x0b	0.073683694
161	0x0e	0.09377924
162	0x19	0.16746294
163	0xe0	-0.21435256
164	0xd5	-0.28803626
165	0xcf	-0.32822737
166	0x0b	0.073683694
167	0xf5	-0.073683694
168	0x06	0.040191106
169	0x28	0.2679407
170	0x08	0.05358814
171	0x11	0.1138748
172	0x3d	0.40860957
173	0x31	0.32822737
174	0x3c	0.40191105
175	0x4c	0.5090873
176	0x3a	0.388514
177	0x2c	0.29473478
178	0x44	0.4554992
179	0x3b	0.39521253
180	0xf4	-0.08038221
181	0xde	-0.2277496
182	0xfa	-0.040191106
183	0x04	0.02679407
184	0x17	0.1540659
185	0xef	-0.1138748
186	0x1f	0.20765404
187	0x10	0.10717628
188	0xf9	-0.04688962
189	0x11	0.1138748
190	0x17	0.1540659
191	0x2e	0.3081318
192	0x30	0.32152885
193	0xce	-0.3349259
194	0xbd	-0.44880068
195	0xd1	-0.31483033
196	0xf5	-0.073683694
197	0xdf	-0.22105108
198	0xc9	-0.36841846
199	0xfe	-0.013397035
200	0x14	0.13397035
201	0x0e	0.09377924
202	0x0e	0.09377924
203	0x22	0.2277496
204	0x2b	0.28803626
205	0x05	0.033492588
206	0x0a	0.066985175
207	0x02	0.013397035
208	0x06	0.040191106
209	0x21	0.22105108
210	0x0d	0.08708073
211	0xe6	-0.17416146
212	0xec	-0.13397035
213	0xeb	-0.14066887
214	0x01	0.0066985176
215	0x19	0.16746294
216	0xff	-0.0066985176
217	0xfc	-0.02679407
218	0x09	0.06028666
219	0x11	0.1138748
220	0xca	-0.36171994
221	0xe5	-0.18085997
222	0x20	0.21435256
223	0xff	-0.0066985176
224	0x0a	0.066985175
225	0x06	0.040191106
226	0xee	-0.12057332
227	0xd0	-0.32152885
228	0xc9	-0.36841846
229	0xb4	-0.5090873
230	0x11	0.1138748
231	0x2c	0.29473478
232	0x22	0.2277496
233	0x12	0.12057332
234	0xf5	-0.073683694
235	0xdb	-0.24784516
236	0xdc	-0.24114664
237	0x0e	0.09377924
238	0x16	0.14736739
239	0x1f	0.20765404
240	0x17	0.1540659
241	0xe1	-0.20765404
242	0xf5	-0.073683694
243	0xd9	-0.26124218
244	0xca	-0.36171994
245	0xe1	-0.20765404
246	0xfc	-0.02679407
247	0x12	0.12057332
248	0x14	0.13397035
249	0x20	0.21435256
250	0x13	0.12727183
251	0xed	-0.12727183
252	0xd8	-0.2679407
253	0x26	0.25454366
254	0xe7	-0.16746294
255	0xee	-0.12057332

std.constant10 i1 [20, 28] scale=0.0058349944 zero_point=0
0	0xd8	-0.23339978
1	0x1e	0.17504983
2	0x13	0.11086489
3	0x19	0.14587486
4	0x0d	0.07585493
5	0x15	0.12253488
6	0x29	0.23923478
7	0x39	0.3325947
8	0x61	0.56599444
9	0x4b	0.43762457
10	0x53	0.48430455
11	0x55	0.4959745
12	0x3e	0.36176965
13	0xe7	-0.14587486
14	0xf0	-0.09335991
15	0xc8	-0.3267597
16	0xf8	-0.046679955
17	0xfe	-0.011669989
18	0xdc	-0.21005979
19	0x07	0.040844962
20	0xd1	-0.27424473
21	0x08	0.046679955
22	0x00	0.0
23	0xfe	-0.011669989
24	0x11	0.09919491
25	0x1c	0.16337985
26	0x41	0.37927464
27	0xea	-0.12836988
28	0x0c	0.07001993
29	0xe8	-0.14003986
30	0xe9	-0.13420486
31	0x12	0.105029896
32	0x04	0.023339977
33	0xd7	-0.23923478
34	0x07	0.040844962
35	0x02	0.011669989
36	0xe5	-0.15754485
37	0x06	0.035009965
38	0xf0	-0.09335991
39	0x02	0.011669989
40	0xed	-0.11086489
41	0xf1	-0.08752491
42	0x2f	0.27424473
43	0x1b	0.15754485
44	0x42	0.38510963
45	0x4b	0.43762457
46	0x36	0.3150897
47	0x45	0.40261462
48	0x27	0.22756478
49	0x4f	0.46096456
50	0x2e	0.26840973
51	0x44	0.39677963
52	0x10	0.09335991
53	0x07	0.040844962
54	0xc3	-0.35593465
55	0xf6	-0.058349945
56	0xdb	-0.21589479
57	0x2c	0.25673977
58	0x23	0.20422481
59	0x16	0.12836988
60	0x14	0.11669989
61	0xe9	-0.13420486
62	0xfc	-0.023339977
63	0xfc	-0.023339977
64	0x0b	0.06418494
65	0xff	-0.0058349944
66	0x06	0.035009965
67	0x03	0.017504983
68	0x08	0.046679955
69	0xe1	-0.18088482
70	0x09	0.052514948
71	0x16	0.12836988
72	0x23	0.20422481
73	0x2d	0.26257473
74	0x34	0.3034197
75	0x11	0.09919491
76	0x35	0.3092547
77	0x0d	0.07585493
78	0x0b	0.06418494
79	0xf5	-0.06418494
80	0x94	-0.6301794
81	0xaa	-0.50180954
82	0xdf	-0.19255482
83	0xdc	-0.21005979
84	0xdc	-0.21005979
85	0xfe	-0.011669989
86	0xfd	-0.017504983
87	0x00	0.0
88	0x31	0.28591472
89	0x03	0.017504983
90	0x22	0.19838981
91	0x23	0.20422481
92	0xee	-0.105029896
93	0xbf	-0.37927464
94	0xbc	-0.39677963
95	0xae	-0.47846955
96	0xd1	-0.27424473
97	0x1c	0.16337985
98	0x18	0.14003986
99	0xe4	-0.16337985
100	0xee	-0.105029896
101	0xdf	-0.19255482
102	0xf0	-0.09335991
103	0xe2	-0.17504983
104	0x06	0.035009965
105	0x00	0.0
106	0x1d	0.16921483
107	0x24	0.21005979
108	0x45	0.40261462
109	0x3a	0.33842966
110	0xf0	-0.09335991
111	0xd4	-0.25673977
112	0xd2	-0.26840973
113	0xee	-0.105029896
114	0x0f	0.08752491
115	0x06	0.035009965
116	0x44	0.39677963
117	0x34	0.3034197
118	0x47	0.4142846
119	0x57	0.50764453
120	0x3a	0.33842966
121	0x71	0.6593544
122	0x37	0.3209247
123	0x3d	0.35593465
124	0xf8	-0.046679955
125	0x10	0.09335991
126	0x06	0.035009965
127	0x04	0.023339977
128	0x00	0.0
129	0xf7	-0.052514948
130	0xfc	-0.023339977
131	0xff	-0.0058349944
132	0x1e	0.17504983
133	0x19	0.14587486
134	0x18	0.14003986
135	0x0e	0.081689924
136	0x3d	0.35593465
137	0xf1	-0.08752491
138	0xce	-0.29174972
139	0xfb	-0.029174972
140	0x21	0.19255482
141	0xf6	-0.058349945
142	0x2e	0.26840973
143	0xf9	-0.040844962
144	0x09	0.052514948
145	0xfc	-0.023339977
146	0x0a	0.058349945
147	0x29	0.23923478
148	0x30	0.28007972
149	0x1f	0.18088482
150	0x18	0.14003986
151	0x05	0.029174972
152	0x03	0.017504983
153	0xf0	-0.09335991
154	0x22	0.19838981
155	0x2e	0.26840973
156	0x3a	0.33842966
157	0x0c	0.07001993
158	0x0d	0.07585493
159	0xfe	-0.011669989
160	0x0f	0.08752491
161	0xf7	-0.052514948
162	0xee	-0.105029896
163	0x02	0.011669989
164	0xd6	-0.24506976
165	0xf2	-0.081689924
166	0x55	0.4959745
167	0x40	0.37343964
168	0x11	0.09919491
169	0x21	0.19255482
170	0x32	0.29174972
171	0x04	0.023339977
172	0xca	-0.3150897
173	0xc2	-0.36176965
174	0xab	-0.4959745
175	0xaa	-0.50180954
176	0xc3	-0.35593465
177	0x8f	-0.6593544
178	0xb9	-0.4142846
179	0xa3	-0.54265445
180	0xbc	-0.39677963
181	0x32	0.29174972
182	0x02	0.011669989
183	0x0e	0.081689924
184	0x16	0.12836988
185	0xf4	-0.07001993
186	0x03	0.017504983
187	0x11	0.09919491
188	0x18	0.14003986
189	0x17	0.13420486
190	0x08	0.046679955
191	0x29	0.23923478
192	0x33	0.2975847
193	0x42	0.38510963
194	0x74	0.6768593
195	0x38	0.3267597
196	0x2a	0.24506976
197	0x26	0.22172979
198	0xe6	-0.15170985
199	0xf1	-0.08752491
200	0xe2	-0.17504983
201	0xe7	-0.14587486
202	0x14	0.11669989
203	0x0e	0.081689924
204	0x02	0.011669989
205	0x29	0.23923478
206	0x41	0.37927464
207	0x6a	0.6185094
208	0x4c	0.44345957
209	0x3a	0.33842966
210	0x47	0.4142846
211	0x38	0.3267597
212	0x15	0.12253488
213	0xdf	-0.19255482
214	0xe0	-0.18671982
215	0x16	0.12836988
216	0x07	0.040844962
217	0x02	0.011669989
218	0x09	0.052514948
219	0x00	0.0
220	0x08	0.046679955
221	0xea	-0.12836988
222	0x1b	0.15754485
223	0xf5	-0.06418494
224	0x0d	0.07585493
225	0xfb	-0.029174972
226	0xe6	-0.15170985
227	0xfb	-0.029174972
228	0x2c	0.25673977
229	0x25	0.21589479
230	0xda	-0.22172979
231	0x1d	0.16921483
232	0x0e	0.081689924
233	0x03	0.017504983
234	0x1b	0.15754485
235	0x01	0.0058349944
236	0x4e	0.45512956
237	0x7f	0.7410443
238	0x48	0.42011958
239	0x2f	0.27424473
240	0x24	0.21005979
241	0x0e	0.081689924
242	0x16	0.12836988
243	0x0a	0.058349945
244	0x26	0.22172979
245	0x1c	0.16337985
246	0xf5	-0.06418494
247	0x29	0.23923478
248	0xf6	-0.058349945
249	0x4c	0.44345957
250	0x23	0.20422481
251	0x09	0.052514948
252	0x10	0.09335991
253	0x06	0.035009965
254	0x1b	0.15754485
255	0x24	0.21005979

std.constant11 i1 [20, 28] scale=0.00861221 zero_point=0
0	0x05	0.043061048
1	0x0a	0.086122096
2	0x0e	0.12057094
3	0xd9	-0.3358762
4	0xea	-0.18946862
5	0xf3	-0.11195873
6	0xf0	-0.13779536
7	0xf2	-0.12057094
8	0x0b	0.09473431
9	0x03	0.02583663
10	0xef	-0.14640757
11	0xfa	-0.05167326
12	0x0b	0.09473431
13	0xf5	-0.09473431
14	0x2a	0.3617128
15	0x38	0.48228377
16	0x57	0.7492623
17	0x34	0.4478349
18	0x1d	0.24975409
19	0xfa	-0.05167326
20	0x00	0.0
21	0x17	0.19808082
22	0xf0	-0.13779536
23	0xe2	-0.2583663
24	0xc3	-0.5253448
25	0xcf	-0.4219983
26	0x00	0.0
27	0xe6	-0.22391745
28	0x27	0.3358762
29	0xef	-0.14640757
30	0xfc	-0.03444884
31	0x1a	0.22391745
32	0xdb	-0.31865177
33	0xe7	-0.21530525
34	0xe8	-0.20669304
35	0xfc	-0.03444884
36	0x19	0.21530525
37	0x2b	0.37032503
38	0x0e	0.12057094
39	0x17	0.19808082
40	0x03	0.02583663
41	0x26	0.32726398
42	0xff	-0.00861221
43	0x01	0.00861221
44	0x15	0.1808564
45	0x1c	0.24114189
46	0x24	0.31003955
47	0x15	0.1808564
48	0x2b	0.37032503
49	0x3e	0.533957
50	0x08	0.06889768
51	0x20	0.27559072
52	0xeb	-0.1808564
53	0xfc	-0.03444884
54	0xe9	-0.19808082
55	0xea	-0.18946862
56	0xfd	-0.02583663
57	0x15	0.1808564
58	0x12	0.15501978
59	0x06	0.05167326
60	0x15	0.1808564
61	0x07	0.06028547
62	0xef	-0.14640757
63	0x13	0.16363199
64	0x09	0.07750989
65	0x32	0.4306105
66	0x46	0.60285467
67	0x4a	0.63730353
68	0x21	0.28420293
69	0x18	0.20669304
70	0x0f	0.12918314
71	0xe9	-0.19808082
72	0xff	-0.00861221
73	0xda	-0.32726398
74	0xef	-0.14640757
75	0x03	0.02583663
76	0xf0	-0.13779536
77	0x07	0.06028547
78	0x0a	0.086122096
79	0xcb	-0.45644712
80	0xd8	-0.34448838
81	0xd5	-0.37032503
82	0xf4	-0.10334652
83	0xf2	-0.12057094
84	0x10	0.13779536
85	0xe1	-0.2669785
86	0x2b	0.37032503
87	0x0a	0.086122096
88	0x0c	0.10334652
89	0x1c	0.24114189
90	0x24	0.31003955
91	0xfd	-0.02583663
92	0x00	0.0
93	0xe4	-0.24114189
94	0xda	-0.32726398
95	0xd4	-0.37893724
96	0x05	0.043061048
97	0x37	0.47367156
98	0x21	0.28420293
99	0x06	0.05167326
100	0xfb	-0.043061048
101	0x18	0.20669304
102	0xf3	-0.11195873
103	0xf2	-0.12057094
104	0xe7	-0.21530525
105	0xf2	-0.12057094
106	0x1b	0.23252967
107	0x40	0.55118144
108	0x34	0.4478349
109	0x37	0.47367156
110	0x4c	0.65452796
111	0x13	0.16363199
112	0x05	0.043061048
113	0x18	0.20669304
114	0x17	0.19808082
115	0x2c	0.37893724
116	0x57	0.7492623
117	0x3c	0.5167326
118	0x3c	0.5167326
119	0x28	0.34448838
120	0x13	0.16363199
121	0x02	0.01722442
122	0xef	-0.14640757
123	0xfe	-0.01722442
124	0x49	0.6286913
125	0x69	0.90428203
126	0x5e	0.8095477
127	0x06	0.05167326
128	0x19	0.21530525
129	0x4f	0.6803646
130	0x25	0.31865177
131	0x36	0.46505934
132	0x33	0.4392227
133	0x21	0.28420293
134	0x1c	0.24114189
135	0x06	0.05167326
136	0xf1	-0.12918314
137	0xee	-0.15501978
138	0x03	0.02583663
139	0x0d	0.11195873
140	0x22	0.29281515
141	0xd8	-0.34448838
142	0xe2	-0.2583663
143	0x03	0.02583663
144	0x32	0.4306105
145	0x2d	0.38754946
146	0x4b	0.64591575
147	0x29	0.3531006
148	0xfd	-0.02583663
149	0xda	-0.32726398
150	0xe2	-0.2583663
151	0xda	-0.32726398
152	0xfd	-0.02583663
153	0x0a	0.086122096
154	0xf4	-0.10334652
155	0x0d	0.11195873
156	0x13	0.16363199
157	0x38	0.48228377
158	0x2b	0.37032503
159	0x21	0.28420293
160	0x1d	0.24975409
161	0x2e	0.39616165
162	0x06	0.05167326
163	0xf1	-0.12918314
164	0xea	-0.18946862
165	0xd2	-0.39616165
166	0xfb	-0.043061048
167	0x0e	0.12057094
168	0x26	0.32726398
169	0xf9	-0.06028547
170	0x09	0.07750989
171	0x03	0.02583663
172	0xfb	-0.043061048
173	0xfc	-0.03444884
174	0x03	0.02583663
175	0x07	0.06028547
176	0x2c	0.37893724
177	0x0a	0.086122096
178	0x2d	0.38754946
179	0x5b	0.7837111
180	0x36	0.46505934
181	0x33	0.4392227
182	0x38	0.48228377
183	0x2e	0.39616165
184	0x24	0.31003955
185	0x08	0.06889768
186	0x23	0.30142733
187	0x34	0.4478349
188	0x44	0.5856303
189	0x45	0.5942425
190	0x0f	0.12918314
191	0x08	0.06889768
192	0xfb	-0.043061048
193	0xf9	-0.06028547
194	0xda	-0.32726398
195	0xe1	-0.2669785
196	0x02	0.01722442
197	0x0c	0.10334652
198	0x14	0.17224419
199	0x19	0.21530525
200	0x02	0.01722442
201	0x06	0.05167326
202	0xd3	-0.38754946
203	0xed	-0.16363199
204	0xdb	-0.31865177
205	0xe2	-0.2583663
206	0xfd	-0.02583663
207	0x26	0.32726398
208	0x24	0.31003955
209	0x1c	0.24114189
210	0xfc	-0.03444884
211	0xdc	-0.31003955
212	0xec	-0.17224419
213	0xf8	-0.06889768
214	0x15	0.1808564
215	0x11	0.14640757
216	0xe0	-0.27559072
217	0xff	-0.00861221
218	0x00	0.0
219	0xf0	-0.13779536
220	0xe8	-0.20669304
221	0xec	-0.17224419
222	0xeb	-0.1808564
223	0x11	0.14640757
224	0x27	0.3358762
225	0x1d	0.24975409
226	0x33	0.4392227
227	0xe8	-0.20669304
228	0xee	-0.15501978
229	0xd5	-0.37032503
230	0xde	-0.29281515
231	0xf9	-0.06028547
232	0x26	0.32726398
233	0x01	0.00861221
234	0x2b	0.37032503
235	0x42	0.56840587
236	0x3f	0.5425692
237	0x26	0.32726398
238	0x10	0.13779536
239	0x3c	0.5167326
240	0x38	0.48228377
241	0x3a	0.49950817
242	0x50	0.68897676
243	0x27	0.3358762
244	0x29	0.3531006
245	0x36	0.46505934
246	0x09	0.07750989
247	0x03	0.02583663
248	0x28	0.34448838
249	0xdc	-0.31003955
250	0xd6	-0.3617128
251	0xe1	-0.2669785
252	0x16	0.18946862
253	0x27	0.3358762
254	0x15	0.1808564
255	0xf4	-0.10334652

std.constant1 i1 [20, 20] scale=0.006986548 zero_point=0
0	0x04	0.027946193
1	0x66	0.7126279
2	0x3f	0.44015253
3	0xe6	-0.18165025
4	0x07	0.04890584
5	0x21	0.23055609
6	0xf6	-0.06986548
7	0x08	0.055892386
8	0xe3	-0.2026099
9	0x3b	0.41220635
10	0xe6	-0.18165025
11	0xd7	-0.28644848
12	0x74	0.8104396
13	0x63	0.6916683
14	0xe4	-0.19562335
15	0x07	0.04890584
16	0xa8	-0.61481625
17	0xed	-0.13274442
18	0x50	0.55892384
19	0x0f	0.10479822
20	0x2d	0.31439468
21	0x1f	0.216583
22	0x10	0.11178477
23	0xe0	-0.22356954
24	0xcd	-0.35631394
25	0x19	0.17466371
26	0x18	0.16767716
27	0x03	0.020959646
28	0xd9	-0.2724754
29	0x1f	0.216583
30	0x11	0.11877132
31	0xf0	-0.11178477
32	0x26	0.26548883
33	0x01	0.006986548
34	0xe3	-0.2026099
35	0xd7	-0.28644848
36	0xe6	-0.18165025
37	0xf4	-0.08383858
38	0x42	0.46111217
39	0x14	0.13973096
40	0xec	-0.13973096
41	0xeb	-0.14671752
42	0xef	-0.11877132
43	0xcd	-0.35631394
44	0x23	0.24452919
45	0x02	0.013973096
46	0xba	-0.48905838
47	0xe9	-0.1606906
48	0xcd	-0.35631394
49	0x2a	0.29343504
50	0xb5	-0.5239911
51	0xfe	-0.013973096
52	0xe5	-0.1886368
53	0xd0	-0.33535433
54	0x2f	0.32836777
55	0x29	0.28644848
56	0xf1	-0.10479822
57	0xfd	-0.020959646
58	0x11	0.11877132
59	0x18	0.16767716
60	0xe9	-0.1606906
61	0x0e	0.09781168
62	0xdf	-0.23055609
63	0x4c	0.53097767
64	0xff	-0.006986548
65	0x1a	0.18165025
66	0x2c	0.30740812
67	0x02	0.013973096
68	0x0a	0.06986548
69	0x0a	0.06986548
70	0x21	0.23055609
71	0xc6	-0.4052198
72	0x0a	0.06986548
73	0xe1	-0.216583
74	0x27	0.2724754
75	0xd9	-0.2724754
76	0x0d	0.090825126
77	0x35	0.37028706
78	0xbc	-0.4750853
79	0xd5	-0.30042157
80	0x06	0.04191929
81	0xe5	-0.1886368
82	0xde	-0.23754264
83	0xc9	-0.38426015
84	0x61	0.67769516
85	0x57	0.6078297
86	0xd4	-0.30740812
87	0x1a	0.18165025
88	0x0c	0.08383858
89	0xdc	-0.25151575
90	0x18	0.16767716
91	0xf2	-0.09781168
92	0x20	0.22356954
93	0x18	0.16767716
94	0x3c	0.41919288
95	0x39	0.39823323
96	0x1e	0.20959644
97	0x3a	0.4052198
98	0xfe	-0.013973096
99	0xe5	-0.1886368
100	0xec	-0.13973096
101	0x0d	0.090825126
102	0xe6	-0.18165025
103	0x24	0.25151575
104	0xf4	-0.08383858
105	0x00	0.0
106	0x05	0.03493274
107	0xe2	-0.20959644
108	0x1d	0.2026099
109	0xf2	-0.09781168
110	0xf6	-0.06986548
111	0x00	0.0
112	0xe9	-0.1606906
113	0x0f	0.10479822
114	0xfd	-0.020959646
115	0xf3	-0.090825126
116	0xe9	-0.1606906
117	0xfe	-0.013973096
118	0xf6	-0.06986548
119	0x15	0.14671752
120	0xf7	-0.06287894
121	0x1c	0.19562335
122	0x19	0.17466371
123	0x06	0.04191929
124	0xde	-0.23754264
125	0x14	0.13973096
126	0xbc	-0.4750853
127	0xf0	-0.11178477
128	0xea	-0.15370406
129	0xc9	-0.38426015
130	0x19	0.17466371
131	0xee	-0.12575787
132	0x2c	0.30740812
133	0xfa	-0.04191929
134	0x07	0.04890584
135	0x27	0.2724754
136	0x3d	0.42617944
137	0xeb	-0.14671752
138	0x44	0.4750853
139	0x0b	0.07685203
140	0xf1	-0.10479822
141	0x15	0.14671752
142	0x09	0.06287894
143	0xef	-0.11877132
144	0xfc	-0.027946193
145	0xf5	-0.07685203
146	0x15	0.14671752
147	0xe9	-0.1606906
148	0xdc	-0.25151575
149	0x0d	0.090825126
150	0xf6	-0.06986548
151	0x03	0.020959646
152	0x31	0.34234086
153	0xfa	-0.04191929
154	0xf7	-0.06287894
155	0x09	0.06287894
156	0xda	-0.26548883
157	0xe0	-0.22356954
158	0x09	0.06287894
159	0x3e	0.433166
160	0x3a	0.4052198
161	0x33	0.35631394
162	0x0b	0.07685203
163	0x1f	0.216583
164	0x09	0.06287894
165	0xcc	-0.3633005
166	0xc0	-0.44713908
167	0x06	0.04191929
168	0xee	-0.12575787
169	0x16	0.15370406
170	0xf3	-0.090825126
171	0xf0	-0.11178477
172	0x48	0.5030315
173	0xe2	-0.20959644
174	0xc4	-0.41919288
175	0x46	0.48905838
176	0xbb	-0.48207182
177	0x94	-0.7545472
178	0x24	0.25151575
179	0x05	0.03493274
180	0xd8	-0.27946192
181	0x21	0.23055609
182	0x1b	0.1886368
183	0x10	0.11178477
184	0x8e	-0.79646647
185	0x1a	0.18165025
186	0x5e	0.65673554
187	0x1c	0.19562335
188	0x00	0.0
189	0x35	0.37028706
190	0x1e	0.20959644
191	0xc5	-0.41220635
192	0x2d	0.31439468
193	0xea	-0.15370406
194	0xda	-0.26548883
195	0xc7	-0.39823323
196	0xbb	-0.48207182
197	0x4c	0.53097767
198	0x00	0.0
199	0xba	-0.48905838
200	0xec	-0.13973096
201	0x13	0.13274442
202	0x04	0.027946193
203	0xae	-0.57289696
204	0xe2	-0.20959644
205	0x04	0.027946193
206	0x17	0.1606906
207	0xd6	-0.29343504
208	0xb0	-0.55892384
209	0x1d	0.2026099
210	0x4d	0.5379642
211	0xa0	-0.67070866
212	0x21	0.23055609
213	0x04	0.027946193
214	0xcf	-0.34234086
215	0xf2	-0.09781168
216	0xf0	-0.11178477
217	0xe5	-0.1886368
218	0xfe	-0.013973096
219	0xfa	-0.04191929
220	0xea	-0.15370406
221	0x3a	0.4052198
222	0x51	0.5659104
223	0x06	0.04191929
224	0xeb	-0.14671752
225	0xf2	-0.09781168
226	0x16	0.15370406
227	0x07	0.04890584
228	0x75	0.81742615
229	0x4e	0.5449508
230	0xfb	-0.03493274
231	0xf7	-0.06287894
232	0xde	-0.23754264
233	0x18	0.16767716
234	0xdf	-0.23055609
235	0xc8	-0.3912467
236	0xea	-0.15370406
237	0x55	0.5938566
238	0xea	-0.15370406
239	0xef	-0.11877132
240	0x2d	0.31439468
241	0x3a	0.4052198
242	0x53	0.5798835
243	0xb7	-0.510018
244	0xef	-0.11877132
245	0x29	0.28644848
246	0x03	0.020959646
247	0x48	0.5030315
248	0x6e	0.7685203
249	0xed	-0.13274442
250	0xcf	-0.34234086
251	0x35	0.37028706
252	0xc6	-0.4052198
253	0x31	0.34234086
254	0xc9	-0.38426015
255	0x0a	0.06986548

std.constant12 i1 [20, 20] scale=0.0046614823 zero_point=0
0	0xee	-0.08390668
1	0xc6	-0.27036598
2	0xdc	-0.16781336
3	0xf2	-0.06526075
4	0xb3	-0.35893413
5	0xf2	-0.06526075
6	0x05	0.023307411
7	0xdd	-0.16315188
8	0x32	0.23307411
9	0x40	0.29833487
10	0x07	0.032630377
11	0x02	0.009322965
12	0xf6	-0.046614822
13	0xbe	-0.30765784
14	0x25	0.17247485
15	0xfd	-0.013984447
16	0x5c	0.42885637
17	0x11	0.0792452
18	0x0a	0.046614822
19	0x54	0.39156452
20	0x2f	0.21908967
21	0xcc	-0.24239708
22	0x05	0.023307411
23	0xf5	-0.051276304
24	0xe3	-0.13518299
25	0x11	0.0792452
26	0xe6	-0.12119854
27	0x0a	0.046614822
28	0xf6	-0.046614822
29	0x24	0.16781336
30	0x22	0.1584904
31	0x0c	0.05593779
32	0x56	0.4008875
33	0xf9	-0.032630377
34	0xe8	-0.11187558
35	0xf6	-0.046614822
36	0x09	0.04195334
37	0xfa	-0.027968895
38	0x1c	0.1305215
39	0x08	0.03729186
40	0xec	-0.093229644
41	0x3f	0.2936734
42	0x11	0.0792452
43	0xfc	-0.01864593
44	0xc4	-0.27968892
45	0xfd	-0.013984447
46	0x28	0.18645929
47	0x36	0.25172004
48	0x3c	0.27968892
49	0x1e	0.13984446
50	0x20	0.14916743
51	0x04	0.01864593
52	0x12	0.08390668
53	0x0b	0.051276304
54	0x09	0.04195334
55	0xe2	-0.13984446
56	0xda	-0.17713633
57	0x34	0.24239708
58	0x0a	0.046614822
59	0xd8	-0.18645929
60	0x17	0.10721409
61	0x05	0.023307411
62	0xec	-0.093229644
63	0xee	-0.08390668
64	0x12	0.08390668
65	0x5a	0.4195334
66	0x18	0.11187558
67	0x42	0.30765784
68	0x26	0.17713633
69	0x09	0.04195334
70	0x2a	0.19578226
71	0xdb	-0.17247485
72	0xe6	-0.12119854
73	0x34	0.24239708
74	0xdd	-0.16315188
75	0xf3	-0.06059927
76	0x18	0.11187558
77	0x17	0.10721409
78	0xf9	-0.032630377
79	0xb5	-0.34961116
80	0xd8	-0.18645929
81	0xff	-0.0046614823
82	0xf9	-0.032630377
83	0x01	0.0046614823
84	0xa1	-0.4428408
85	0xb0	-0.37291858
86	0x63	0.46148676
87	0xfc	-0.01864593
88	0x26	0.17713633
89	0xe0	-0.14916743
90	0x5b	0.4241949
91	0x22	0.1584904
92	0x5e	0.43817934
93	0x1d	0.13518299
94	0x37	0.2563815
95	0xdb	-0.17247485
96	0x36	0.25172004
97	0xec	-0.093229644
98	0x0b	0.051276304
99	0x49	0.34028822
100	0x1a	0.12119854
101	0x22	0.1584904
102	0x29	0.19112077
103	0xd6	-0.19578226
104	0x0c	0.05593779
105	0xef	-0.0792452
106	0xf2	-0.06526075
107	0x0b	0.051276304
108	0x3a	0.27036598
109	0x32	0.23307411
110	0xde	-0.1584904
111	0x08	0.03729186
112	0x9d	-0.46148676
113	0x3a	0.27036598
114	0xc3	-0.28435043
115	0xa1	-0.4428408
116	0x3f	0.2936734
117	0x1d	0.13518299
118	0x08	0.03729186
119	0x21	0.15382892
120	0xfe	-0.009322965
121	0x0b	0.051276304
122	0x51	0.37758008
123	0xe1	-0.14450595
124	0x11	0.0792452
125	0x21	0.15382892
126	0x08	0.03729186
127	0xaf	-0.37758008
128	0xad	-0.38690302
129	0x21	0.15382892
130	0x31	0.22841263
131	0xba	-0.32630375
132	0xe3	-0.13518299
133	0x16	0.10255261
134	0x1d	0.13518299
135	0x0a	0.046614822
136	0xdd	-0.16315188
137	0x1e	0.13984446
138	0x07	0.032630377
139	0x3d	0.28435043
140	0xe8	-0.11187558
141	0x25	0.17247485
142	0x3d	0.28435043
143	0x0c	0.05593779
144	0x24	0.16781336
145	0x25	0.17247485
146	0x29	0.19112077
147	0xca	-0.25172004
148	0x3d	0.28435043
149	0x5c	0.42885637
150	0xff	-0.0046614823
151	0xeb	-0.09789113
152	0xdd	-0.16315188
153	0x25	0.17247485
154	0xfe	-0.009322965
155	0xd1	-0.21908967
156	0xe5	-0.12586002
157	0x01	0.0046614823
158	0xe0	-0.14916743
159	0x5c	0.42885637
160	0xd8	-0.18645929
161	0x12	0.08390668
162	0xdd	-0.16315188
163	0xd4	-0.20510522
164	0x81	-0.59200823
165	0xff	-0.0046614823
166	0xf1	-0.06992223
167	0x05	0.023307411
168	0xbf	-0.30299634
169	0x3d	0.28435043
170	0x5b	0.4241949
171	0xb0	-0.37291858
172	0x66	0.4754712
173	0x14	0.093229644
174	0x3b	0.27502745
175	0x54	0.39156452
176	0x9d	-0.46148676
177	0x2a	0.19578226
178	0xe6	-0.12119854
179	0x02	0.009322965
180	0xf0	-0.07458372
181	0xf4	-0.05593779
182	0xca	-0.25172004
183	0x0b	0.051276304
184	0xdc	-0.16781336
185	0xb3	-0.35893413
186	0x5a	0.4195334
187	0xff	-0.0046614823
188	0xf4	-0.05593779
189	0x18	0.11187558
190	0x20	0.14916743
191	0xe2	-0.13984446
192	0xbf	-0.30299634
193	0xaf	-0.37758008
194	0x4b	0.34961116
195	0xda	-0.17713633
196	0x61	0.4521638
197	0x29	0.19112077
198	0xf5	-0.051276304
199	0xe8	-0.11187558
200	0xf7	-0.04195334
201	0xeb	-0.09789113
202	0x0a	0.046614822
203	0x15	0.09789113
204	0x19	0.11653706
205	0xcd	-0.2377356
206	0x50	0.37291858
207	0x12	0.08390668
208	0xf9	-0.032630377
209	0xfc	-0.01864593
210	0xfe	-0.009322965
211	0xcb	-0.24705856
212	0x02	0.009322965
213	0x38	0.261043
214	0x11	0.0792452
215	0xba	-0.32630375
216	0x10	0.07458372
217	0x03	0.013984447
218	0xc5	-0.27502745
219	0x1f	0.14450595
220	0xdb	-0.17247485
221	0xfb	-0.023307411
222	0xff	-0.0046614823
223	0x1f	0.14450595
224	0xcb	-0.24705856
225	0xf7	-0.04195334
226	0x07	0.032630377
227	0x08	0.03729186
228	0xe2	-0.13984446
229	0x11	0.0792452
230	0xf8	-0.03729186
231	0xee	-0.08390668
232	0xe8	-0.11187558
233	0xe2	-0.13984446
234	0x0b	0.051276304
235	0xce	-0.23307411
236	0x25	0.17247485
237	0xeb	-0.09789113
238	0xe0	-0.14916743
239	0x01	0.0046614823
240	0x05	0.023307411
241	0xeb	-0.09789113
242	0xe8	-0.11187558
243	0xf7	-0.04195334
244	0xe2	-0.13984446
245	0x19	0.11653706
246	0xd2	-0.21442819
247	0x0e	0.06526075
248	0xce	-0.23307411
249	0x7b	0.57336235
250	0xe8	-0.11187558
251	0x40	0.29833487
252	0x48	0.33562672
253	0xe9	-0.10721409
254	0x2b	0.20044374
255	0x64	0.46614823

std.constant2 i1 [20, 20] scale=0.004288494 zero_point=0
0	0x1c	0.12007783
1	0xe7	-0.10721235
2	0xf2	-0.060038917
3	0x29	0.17582826
4	0x04	0.017153976
5	0xb6	-0.31734857
6	0xfc	-0.017153976
7	0x29	0.17582826
8	0x6b	0.45886886
9	0xa2	-0.40311846
10	0xcd	-0.2187132
11	0x44	0.2916176
12	0x0c	0.051461928
13	0x3a	0.24873266
14	0xdb	-0.15867428
15	0xf7	-0.038596448
16	0x35	0.22729018
17	0xf1	-0.06432741
18	0x03	0.012865482
19	0x0b	0.047173437
20	0xe6	-0.111500844
21	0x2a	0.18011676
22	0xf0	-0.068615906
23	0x02	0.008576988
24	0x08	0.034307953
25	0xd7	-0.17582826
26	0xe8	-0.102923855
27	0xf3	-0.055750422
28	0x15	0.09005838
29	0xad	-0.35594502
30	0x41	0.27875212
31	0xe7	-0.10721235
32	0xd3	-0.19298224
33	0xc6	-0.24873266
34	0xe3	-0.12436633
35	0xeb	-0.09005838
36	0xca	-0.23157868
37	0x26	0.16296278
38	0xf0	-0.068615906
39	0x0c	0.051461928
40	0xad	-0.35594502
41	0x22	0.1458088
42	0x04	0.017153976
43	0xf1	-0.06432741
44	0x10	0.068615906
45	0x0f	0.06432741
46	0x75	0.5017538
47	0xc3	-0.26159814
48	0x0c	0.051461928
49	0x0b	0.047173437
50	0x38	0.24015567
51	0xbe	-0.2830406
52	0x0a	0.042884942
53	0x1d	0.12436633
54	0x05	0.021442471
55	0xe2	-0.12865482
56	0x26	0.16296278
57	0x28	0.17153977
58	0x0c	0.051461928
59	0x1b	0.11578934
60	0xe7	-0.10721235
61	0x38	0.24015567
62	0xb7	-0.31306008
63	0x2d	0.19298224
64	0x1e	0.12865482
65	0x34	0.22300169
66	0x5d	0.39882997
67	0xd9	-0.16725127
68	0x04	0.017153976
69	0xcb	-0.22729018
70	0xfd	-0.012865482
71	0x17	0.09863537
72	0x0c	0.051461928
73	0x10	0.068615906
74	0xe7	-0.10721235
75	0xd1	-0.20155923
76	0xf5	-0.047173437
77	0xfc	-0.017153976
78	0xef	-0.0729044
79	0xfd	-0.012865482
80	0xda	-0.16296278
81	0x08	0.034307953
82	0x0a	0.042884942
83	0x1e	0.12865482
84	0xfe	-0.008576988
85	0xf8	-0.034307953
86	0xde	-0.1458088
87	0xb1	-0.33879104
88	0xdd	-0.1500973
89	0xfc	-0.017153976
90	0x1d	0.12436633
91	0xf7	-0.038596448
92	0xde	-0.1458088
93	0x25	0.15867428
94	0x26	0.16296278
95	0xd5	-0.18440525
96	0xf8	-0.034307953
97	0xd3	-0.19298224
98	0xd5	-0.18440525
99	0x20	0.13723181
100	0xd6	-0.18011676
101	0xda	-0.16296278
102	0xf4	-0.051461928
103	0x14	0.085769884
104	0x1b	0.11578934
105	0x08	0.034307953
106	0x1c	0.12007783
107	0xc8	-0.24015567
108	0xc7	-0.24444416
109	0x33	0.2187132
110	0xd4	-0.18869375
111	0x03	0.012865482
112	0x9c	-0.4288494
113	0xd5	-0.18440525
114	0xf6	-0.042884942
115	0xf0	-0.068615906
116	0xcf	-0.2101362
117	0xf6	-0.042884942
118	0xae	-0.35165653
119	0x47	0.3044831
120	0xfa	-0.025730964
121	0xf6	-0.042884942
122	0x05	0.021442471
123	0xfc	-0.017153976
124	0xe9	-0.09863537
125	0x14	0.085769884
126	0x2f	0.20155923
127	0xd8	-0.17153977
128	0xcb	-0.22729018
129	0x0e	0.060038917
130	0x0e	0.060038917
131	0xf5	-0.047173437
132	0x46	0.3001946
133	0xfd	-0.012865482
134	0xda	-0.16296278
135	0xfc	-0.017153976
136	0x05	0.021442471
137	0xff	-0.004288494
138	0x4a	0.31734857
139	0xaa	-0.3688105
140	0x17	0.09863537
141	0x3c	0.25730965
142	0x1b	0.11578934
143	0x14	0.085769884
144	0x1e	0.12865482
145	0xf3	-0.055750422
146	0x26	0.16296278
147	0x28	0.17153977
148	0x3c	0.25730965
149	0x14	0.085769884
150	0xd7	-0.17582826
151	0x08	0.034307953
152	0x1a	0.111500844
153	0x10	0.068615906
154	0x40	0.27446362
155	0x48	0.30877158
156	0x05	0.021442471
157	0x1b	0.11578934
158	0xdb	-0.15867428
159	0xc4	-0.25730965
160	0xdf	-0.1415203
161	0xe3	-0.12436633
162	0xec	-0.085769884
163	0x1a	0.111500844
164	0x08	0.034307953
165	0xeb	-0.09005838
166	0x05	0.021442471
167	0xd6	-0.18011676
168	0xff	-0.004288494
169	0x23	0.1500973
170	0x08	0.034307953
171	0x20	0.13723181
172	0xd8	-0.17153977
173	0x30	0.20584771
174	0x19	0.10721235
175	0x95	-0.45886886
176	0xe1	-0.13294332
177	0x2a	0.18011676
178	0x8c	-0.4974653
179	0x40	0.27446362
180	0x61	0.41598392
181	0x0e	0.060038917
182	0x14	0.085769884
183	0x14	0.085769884
184	0x2e	0.19727074
185	0xc2	-0.26588663
186	0xd6	-0.18011676
187	0xef	-0.0729044
188	0xfc	-0.017153976
189	0x0b	0.047173437
190	0x08	0.034307953
191	0x20	0.13723181
192	0xd9	-0.16725127
193	0xe7	-0.10721235
194	0xed	-0.08148139
195	0xf6	-0.042884942
196	0xe0	-0.13723181
197	0x06	0.025730964
198	0x44	0.2916176
199	0x0c	0.051461928
200	0x22	0.1458088
201	0x20	0.13723181
202	0x0b	0.047173437
203	0xec	-0.085769884
204	0xdd	-0.1500973
205	0x4e	0.33450255
206	0xcc	-0.22300169
207	0xe8	-0.102923855
208	0x1b	0.11578934
209	0x09	0.038596448
210	0xdb	-0.15867428
211	0x20	0.13723181
212	0x2d	0.19298224
213	0x34	0.22300169
214	0x13	0.08148139
215	0xf1	-0.06432741
216	0x05	0.021442471
217	0x14	0.085769884
218	0x16	0.09434687
219	0x86	-0.5231963
220	0xca	-0.23157868
221	0xd9	-0.16725127
222	0xe4	-0.12007783
223	0x25	0.15867428
224	0x29	0.17582826
225	0xd9	-0.16725127
226	0xd9	-0.16725127
227	0x07	0.030019458
228	0x0e	0.060038917
229	0xb4	-0.32592556
230	0xf4	-0.051461928
231	0x22	0.1458088
232	0xe7	-0.10721235
233	0x20	0.13723181
234	0x0f	0.06432741
235	0xe0	-0.13723181
236	0xc3	-0.26159814
237	0xa2	-0.40311846
238	0xe4	-0.12007783
239	0xd9	-0.16725127
240	0x0f	0.06432741
241	0xeb	-0.09005838
242	0x35	0.22729018
243	0xe3	-0.12436633
244	0x3a	0.24873266
245	0x29	0.17582826
246	0x0e	0.060038917
247	0x46	0.3001946
248	0xea	-0.09434687
249	0x01	0.004288494
250	0x81	-0.54463875
251	0x4e	0.33450255
252	0x23	0.1500973
253	0x34	0.22300169
254	0xe5	-0.11578934
255	0x07	0.030019458

std.constant3 i1 [20, 20] scale=0.007113788 zero_point=0
0	0x23	0.24898258
1	0x7f	0.903451
2	0x5d	0.6615823
3	0xd0	-0.3414618
4	0xe8	-0.1707309
5	0x37	0.39125833
6	0x2a	0.2987791
7	0x04	0.028455151
8	0x0a	0.071137875
9	0x55	0.60467196
10	0xe8	-0.1707309
11	0x41	0.4623962
12	0x76	0.83942693
13	0x43	0.47662377
14	0xa4	-0.6544685
15	0x1a	0.18495849
16	0xc9	-0.39125833
17	0xd8	-0.2845515
18	0x1a	0.18495849
19	0x0a	0.071137875
20	0x30	0.3414618
21	0xfb	-0.035568938
22	0x16	0.15650333
23	0xa2	-0.66869605
24	0x02	0.014227576
25	0x1d	0.20629984
26	0x14	0.14227575
27	0x29	0.2916653
28	0xe7	-0.17784469
29	0x1f	0.22052743
30	0xbf	-0.4623962
31	0xfb	-0.035568938
32	0xfb	-0.035568938
33	0xed	-0.13516197
34	0xd0	-0.3414618
35	0x19	0.17784469
36	0x21	0.234755
37	0xfe	-0.014227576
38	0x53	0.5904444
39	0xfa	-0.042682726
40	0x7e	0.8963373
41	0x01	0.007113788
42	0x0f	0.10670682
43	0xfb	-0.035568938
44	0x1a	0.18495849
45	0xc6	-0.41259968
46	0xcc	-0.36991698
47	0x32	0.35568938
48	0xf6	-0.071137875
49	0x20	0.22764121
50	0xbd	-0.47662377
51	0x1f	0.22052743
52	0x03	0.021341363
53	0xfc	-0.028455151
54	0x26	0.27032393
55	0x3d	0.43394107
56	0x3e	0.44105485
57	0x3a	0.41259968
58	0x2b	0.30589288
59	0xe6	-0.18495849
60	0x09	0.06402409
61	0x2d	0.32012045
62	0xfb	-0.035568938
63	0x03	0.021341363
64	0xef	-0.12093439
65	0x2f	0.33434802
66	0x3d	0.43394107
67	0xfe	-0.014227576
68	0x33	0.3628032
69	0xf3	-0.092479244
70	0xe2	-0.21341364
71	0xf5	-0.07825167
72	0x15	0.14938955
73	0x1c	0.19918606
74	0xed	-0.13516197
75	0xd0	-0.3414618
76	0x03	0.021341363
77	0x51	0.5762168
78	0x09	0.06402409
79	0xda	-0.27032393
80	0x08	0.056910302
81	0x45	0.49085137
82	0x03	0.021341363
83	0xbd	-0.47662377
84	0xe3	-0.20629984
85	0xce	-0.35568938
86	0x38	0.3983721
87	0x1e	0.21341364
88	0x1a	0.18495849
89	0xe7	-0.17784469
90	0xf4	-0.08536545
91	0xc1	-0.44816864
92	0x3e	0.44105485
93	0x11	0.12093439
94	0xec	-0.14227575
95	0xef	-0.12093439
96	0x1c	0.19918606
97	0x07	0.049796514
98	0x3f	0.44816864
99	0xcc	-0.36991698
100	0x14	0.14227575
101	0x21	0.234755
102	0x1e	0.21341364
103	0xf1	-0.10670682
104	0xef	-0.12093439
105	0x18	0.1707309
106	0x12	0.12804818
107	0x0e	0.09959303
108	0xf9	-0.049796514
109	0x16	0.15650333
110	0xaf	-0.5762168
111	0x1e	0.21341364
112	0x1b	0.19207227
113	0x2a	0.2987791
114	0xdb	-0.26321015
115	0x18	0.1707309
116	0xe4	-0.19918606
117	0xd8	-0.2845515
118	0x20	0.22764121
119	0x0f	0.10670682
120	0x4b	0.5335341
121	0x1d	0.20629984
122	0x18	0.1707309
123	0xe8	-0.1707309
124	0x39	0.4054859
125	0x09	0.06402409
126	0xee	-0.12804818
127	0xdd	-0.24898258
128	0xce	-0.35568938
129	0x2c	0.31300667
130	0xcd	-0.3628032
131	0xe6	-0.18495849
132	0x1d	0.20629984
133	0xd0	-0.3414618
134	0xe1	-0.22052743
135	0x0b	0.07825167
136	0xf3	-0.092479244
137	0xc0	-0.45528242
138	0x3e	0.44105485
139	0x18	0.1707309
140	0x0f	0.10670682
141	0x0b	0.07825167
142	0x2f	0.33434802
143	0xcf	-0.3485756
144	0x0f	0.10670682
145	0x2d	0.32012045
146	0x2a	0.2987791
147	0x14	0.14227575
148	0x0e	0.09959303
149	0x21	0.234755
150	0xba	-0.49796516
151	0xf9	-0.049796514
152	0x10	0.113820605
153	0xf4	-0.08536545
154	0xdd	-0.24898258
155	0xdd	-0.24898258
156	0xf2	-0.09959303
157	0xf7	-0.06402409
158	0x18	0.1707309
159	0xf6	-0.071137875
160	0x26	0.27032393
161	0x31	0.3485756
162	0x15	0.14938955
163	0xe2	-0.21341364
164	0x02	0.014227576
165	0xfa	-0.042682726
166	0xe6	-0.18495849
167	0x13	0.13516197
168	0xeb	-0.14938955
169	0x0d	0.092479244
170	0xa5	-0.64735466
171	0x58	0.62601334
172	0x38	0.3983721
173	0x0e	0.09959303
174	0xad	-0.5904444
175	0x18	0.1707309
176	0xe5	-0.19207227
177	0xd6	-0.2987791
178	0x27	0.27743772
179	0xe4	-0.19918606
180	0x14	0.14227575
181	0x3a	0.41259968
182	0x0a	0.071137875
183	0xda	-0.27032393
184	0xc8	-0.3983721
185	0xf4	-0.08536545
186	0x26	0.27032393
187	0x4d	0.5477617
188	0x34	0.36991698
189	0xf1	-0.10670682
190	0xf3	-0.092479244
191	0x20	0.22764121
192	0x06	0.042682726
193	0x2d	0.32012045
194	0x0c	0.08536545
195	0xc7	-0.4054859
196	0x1f	0.22052743
197	0x28	0.2845515
198	0x55	0.60467196
199	0xd9	-0.27743772
200	0x24	0.25609636
201	0x13	0.13516197
202	0x4c	0.54064786
203	0xcc	-0.36991698
204	0x25	0.26321015
205	0x05	0.035568938
206	0x19	0.17784469
207	0xf8	-0.056910302
208	0xf8	-0.056910302
209	0x2a	0.2987791
210	0x1e	0.21341364
211	0xd7	-0.2916653
212	0x22	0.24186878
213	0x46	0.49796516
214	0xe3	-0.20629984
215	0xe0	-0.22764121
216	0xfd	-0.021341363
217	0x0c	0.08536545
218	0x22	0.24186878
219	0xed	-0.13516197
220	0xe3	-0.20629984
221	0xeb	-0.14938955
222	0xf1	-0.10670682
223	0x08	0.056910302
224	0xdc	-0.25609636
225	0x09	0.06402409
226	0xe0	-0.22764121
227	0xda	-0.27032393
228	0x38	0.3983721
229	0xe2	-0.21341364
230	0x37	0.39125833
231	0x17	0.16361712
232	0xc1	-0.44816864
233	0x5a	0.6402409
234	0x1b	0.19207227
235	0xf2	-0.09959303
236	0x04	0.028455151
237	0x3e	0.44105485
238	0xe2	-0.21341364
239	0xe3	-0.20629984
240	0x79	0.8607683
241	0xfc	-0.028455151
242	0x36	0.38414454
243	0x83	-0.88922346
244	0xeb	-0.14938955
245	0x16	0.15650333
246	0x0b	0.07825167
247	0x49	0.5193065
248	0x43	0.47662377
249	0xf5	-0.07825167
250	0xe7	-0.17784469
251	0x08	0.056910302
252	0x38	0.3983721
253	0x37	0.39125833
254	0xd8	-0.2845515
255	0x22	0.24186878
